assets/rah_model.tflite (tflite, 22096 bytes, 6 tensors)

sequential/dense_1/BiasAdd/ReadVariableOp f4 [64]
-0.07458867 0.89585763 -0.88811564 0.2512648 -0.07857795 -0.56052035 -0.21308254 1.0893097
-0.45748153 -0.06824583 0.5878217 0.39678425 -0.034111183 -0.6834026 -0.08638 0.32909575
-1.1687119 -0.060384132 -1.2008146 0.8161671 -0.056004565 0.6233511 0.6946104 -0.57547337
0.72322667 0.33464453 -0.23397058 0.05210377 0.68334526 -0.6209653 -0.034943726 0.22373222
-0.39794844 0.63745356 -0.23421146 0.54314667 -0.3543651 -0.07224471 0.3103526 -0.32785752
0.18339898 1.2605491 -0.6001308 0.28073847 -0.027526276 -0.3023816 0.6849543 -0.25625017
0.12688889 -0.04154948 -0.22959776 0.22958092 0.17323765 -0.17262727 0.60063756 -0.039176
0.35223842 -0.15846533 0.80642056 0.3002853 -0.07319142 0.2786144 0.07553787 -0.031722642
00000000: f2c1 98bd ed56 653f 8c5b 63bf c8a5 803e
00000010: 7aed a0bd 437e 0fbf 4f32 5abe 806e 8b3f
00000020: 053b eabe 78c4 8bbd 7c7b 163f 4e27 cb3e
00000030: 2bb8 0bbd 79f3 2ebf ffe7 b0bd 3d7f a83e
00000040: 5a98 95bf 5a55 77bd 4bb4 99bf 54f0 503f
00000050: 0b65 65bd f093 1f3f fdd1 313f 3952 13bf
00000060: 6225 393f 8756 ab3e fc95 6fbe c36a 553d
00000070: b7ef 2e3f 95f7 1ebf 2721 0fbd 0f1a 653e
00000080: e6bf cbbe 2830 233f 21d5 6fbe a90b 0b3f
00000090: 586f b5be 09f5 93bd 89e6 9e3e f1dc a7be
000000a0: f1cc 3b3e ac59 a13f 2ca2 19bf f4bc 8f3e
000000b0: c97e e1bc c3d1 9abe 2a59 2f3f 3933 83be
000000c0: 29ef 013e ca2f 2abd ad1b 6bbe 4317 6b3e
000000d0: 3665 313e 34c5 30be 62c3 193f 0377 20bd
000000e0: 9858 b43e bc44 22be 9471 4e3f ffbe 993e
000000f0: 62e5 95bd 8ca6 8e3e 99b3 9a3d 9aef 01bd

sequential/dense_2/BiasAdd/ReadVariableOp f4 [9]
0.44951743 0.06606727 -0.72686124 0.2032719 0.23494598 -0.45147237 0.060244586 0.12016646
0.18286547
00000000: 2627 e63e 474e 873d 9413 3abf 8226 503e
00000010: ae95 703e 6327 e7be 07c3 763d d519 f63d
00000020: 1641 3b3e

sequential/dense/BiasAdd/ReadVariableOp f4 [64]
-0.32010087 -1.3040724 -0.15749311 -1.0367812 0.5332198 -0.266167 0.22909282 -0.5237229
1.4085423 -0.32083628 0.9566519 -0.46704653 0.33119103 -0.2905537 -0.0075445296 1.6523854
-0.45123187 -0.7639364 -1.0047752 0.37815678 -1.6288075 -0.014672156 0.008897853 -1.1278052
1.1544979 -0.04955253 -0.30668727 0.011255055 -1.6919023 0.21697187 -1.3180248 0.31258273
0.23857297 -0.5230882 -0.03989944 0.40799582 -0.023628538 0.16626316 -0.9738832 -0.3922045
-1.3024848 0.7815144 -1.2465649 -1.0809394 -0.2100431 0.20360039 -0.3883647 -1.1359806
0.7701545 -1.2017055 0.7698512 0.043379396 -0.13544506 -0.095407344 -1.9032282 -0.24527375
0.016103039 -0.6447035 -0.2970288 0.40789628 0.3758479 -0.12608685 -0.27268657 0.44098848
00000000: 43e4 a3be d8eb a6bf e045 21be 3fb5 84bf
00000010: 1881 083f 0b47 88be 4f97 6a3e b412 06bf
00000020: 1d4b b43f a744 a4be 24e7 743f b920 efbe
00000030: df91 a93e 74c3 94be 1a38 f7bb 5d81 d33f
00000040: dd07 e7be 5691 43bf 799c 80bf c49d c13e
00000050: c47c d0bf 7c63 70bc 4dc8 113c ec5b 90bf
00000060: 96c6 933f 98f7 4abd 1d06 9dbe 1f67 383c
00000070: 4190 d8bf e02d 5e3e 09b5 a8bf d80a a03e
00000080: 794c 743e 1ce9 05bf 986d 23bd d4e4 d03e
00000090: a390 c1bc e440 2a3e 6950 79bf 07cf c8be
000000a0: d2b7 a6bf 5411 483f 708f 9fbf 395c 8abf
000000b0: 8a15 57be 9f7c 503e bdd7 c6be d067 91bf
000000c0: d828 453f 7cd1 99bf f814 453f 98ae 313d
000000d0: 1cb2 0abe ed64 c3bd fb9c f3bf 0b29 7bbe
000000e0: 85ea 833c 4a0b 25bf 2914 98be c8d7 d03e
000000f0: 236f c03e e91c 01be 939d 8bbe 3ec9 e13e

sequential/dense/MatMul f4 [64, 3]
0.40222976 0.17648728 -0.00816656 -0.13650419 0.1177991 0.17409179 -0.124859564 0.6324963
0.12486329 0.060150422 -0.081691146 0.09225692 -0.054333143 -0.33866796 0.009630638 -0.8677551
-0.26969346 0.064465255 0.3860276 -1.2866927 -0.15489179 -0.10466032 0.08350517 -0.05223633
-0.040294796 -0.022434227 -0.13860047 0.74125683 0.90934664 -0.18375094 0.12964752 0.5115751
-0.23925325 0.76549464 0.6169408 -0.19588298 0.47674897 0.728936 0.05871873 0.20182538
0.107473575 -0.026764436 -0.19731331 -0.32856 0.11035986 0.009268009 -0.07088286 -0.1768634
1.0624917 0.17729332 -0.02145576 0.05177811 0.5294603 0.20525111 0.13336994 -0.13791099
0.13151707 0.10559374 0.6789862 0.11001112 0.1283435 -0.12251875 0.15772694 -0.41990566
0.8606202 -0.09517069 -0.07923288 0.872384 -0.21194771 -0.058121704 -0.062198676 0.0692163
-0.14575763 0.3323088 -0.20043965 0.1603043 0.86696786 -0.28263873 0.8632425 -0.16216715
0.010084188 -0.58151466 -0.15041898 -0.3588288 -0.03442523 -0.09342055 0.16577236 1.1001626
-0.68257934 -0.19055033 -0.1522871 0.106328085 0.17025632 0.13865234 -0.19390915 -0.16796392
-1.1396087 -0.74859154 -0.21542226 -0.02080924 0.020569565 0.011498639 1.1062908 0.048686016
-0.041875977 0.7057786 -0.5307775 -0.064779334 0.7064143 -1.2410929 -0.22313443 -0.34576505
0.09655377 -0.28294045 -0.00896114 0.69370806 -0.00057569385 -0.6259179 -0.35151163 -0.21788254
0.38307133 0.55839896 0.069709376 0.5884845 0.051617417 -0.07841548 -0.1359257 -0.26756382
0.08492932 -0.51723295 -0.01547889 0.0110828485 -0.49209034 0.69749475 -0.21818873 -0.3603744
0.64831483 -0.4385674 0.35753816 -1.0064275 -0.1876277 0.03237596 -0.019337045 0.12304456
0.57968044 0.6541761 -0.2866289 -0.0628487 -0.0139280325 0.12862809 0.013774572 -0.28244716
0.015708309 -0.44234356 0.3690936 -0.35107908 -0.8202959 0.25733852 -0.2139359 -1.2051833
-0.7859071 0.02851947 -0.046000134 -0.016500654 0.20579837 0.9169914 -0.29923013 -0.044607636
1.415621 -0.16958162 -0.15188734 -0.7068722 -0.002509413 0.09727525 -0.65581477 0.21017736
0.044360872 -0.3862172 -0.5766316 -0.45204452 0.99210227 -0.14076038 -0.27016702 0.16701534
-0.25622973 -0.12634979 0.021994164 -0.031740934 -0.013799764 0.11930967 -0.052616414 -0.18619214
00000000: 0ff1 cd3e 15b9 343e 09cd 05bc c1c7 0bbe
00000010: a840 f13d 1e45 323e 5fb6 ffbd 47eb 213f
00000020: 53b8 ff3d 4a60 763d b04d a7bd 32f1 bc3d
00000030: 6e8c 5ebd e365 adbe d3c9 1d3c 3325 5ebf
00000040: 4315 8abe 5c06 843d 69a5 c53e 59b2 a4bf
00000050: f49b 1ebe 2658 d6bd c204 ab3d c3f5 55bd
00000060: 280c 25bd fcc7 b7bc 48ed 0dbe 02c3 3d3f
00000070: f1ca 683f 3529 3cbe 52c2 043e 96f6 023f
00000080: cefe 74be 75f7 433f d5ef 1d3f 8c95 48be
00000090: 7118 f43e 8d9b 3a3f 0d83 703d 50ab 4e3e
000000a0: 1b1b dc3d 1741 dbbc 800c 4abe 0439 a8be
000000b0: 5a04 e23d d9d8 173c 082b 91bd ae1b 35be
000000c0: baff 873f 618c 353e fdc3 afbc 4915 543d
000000d0: b68a 073f 592d 523e 2192 083e 8a38 0dbe
000000e0: 69ac 063e 8841 d83d 0ad2 2d3f 834d e13d
000000f0: 7a6c 033e 1ceb fabd 2c83 213e e0fd d6be
00000100: 9b51 5c3f dae8 c2bd d944 a2bd 8f54 5f3f
00000110: d208 59be 0611 6ebd 0ac4 7ebd 47c1 8d3d
00000120: 7d41 15be 6124 aa3e 0d40 4dbe cf26 243e
00000130: 9bf1 5d3f 06b6 90be 76fd 5c3f 250f 26be
00000140: 2638 253c 25de 14bf 6f07 1abe 69b8 b7be
00000150: 7801 0dbd 4653 bfbd 3bc0 293e 21d2 8c3f
00000160: 85bd 2ebf a01f 43be 26f1 1bbe 8ac2 d93d
00000170: ac57 2e3e e1fa 0d3e 1f90 46be bcfe 2bbe
00000180: b3de 91bf b2a3 3fbf a797 5cbe 2478 aabc
00000190: 8181 a83c ca64 3c3c f09a 8d3f fd6a 473d
000001a0: 2586 2bbd e8ad 343f 09e1 07bf 07ab 84bd
000001b0: 91d7 343f 22dc 9ebf 5a7d 64be 1e08 b1be
000001c0: fcbd c53d 92dd 90be bfd1 12bc da96 313f
000001d0: 29ea 16ba 283c 20bf 55f9 b3be 9a1c 5fbe
000001e0: ed21 c43e 3cf3 0e3f cac3 8e3d eca6 163f
000001f0: c96c 533d 4c98 a0bd 1b30 0bbe 20fe 88be
00000200: 6cef ad3d 6169 04bf 2c9b 7dbc d694 353c
00000210: 44f3 fbbe 048f 323f de6c 5fbe fe82 b8be
00000220: f6f7 253f e88b e0be 3e0f b73e 9ed2 80bf
00000230: 7a21 40be a89c 043d b968 9ebc c9fe fb3d
00000240: f065 143f 1678 273f 06c1 92be d2b6 80bd
00000250: 6732 64bc 15b7 033e beae 613c ea9c 90be
00000260: b6ae 803c db7a e2be d6f9 bc3e a3c0 b3be
00000270: e9fe 51bf e0c1 833e 0312 5bbe 7243 9abf
00000280: 3531 49bf aaa1 e93c a36a 3cbd 612c 87bc
00000290: cfbc 523e f3bf 6a3f b134 99be 7fb6 36bd
000002a0: 1233 b53f cea6 2dbe 5b88 1bbe 94f5 34bf
000002b0: f774 24bb 3f38 c73d 7ae3 27bf bc38 573e
000002c0: bfb3 353d 43be c5be 219e 13bf 6172 e7be
000002d0: 6afa 7d3f 7d23 10be 5553 8abe 1206 2b3e
000002e0: 8b30 83be d761 01be 1b2d b43c c802 02bd
000002f0: 6818 62bc a158 f43d 4f84 57bd 27a9 3ebe

sequential/dense_1/MatMul f4 [64, 64]
0.42280897 -0.25107113 0.09577212 0.20583741 0.065252714 -0.26182634 -0.09447165 0.06259931
0.6441015 -1.3827742 -0.41213647 -2.0128145 0.056672025 0.2044855 -0.04518676 0.97414166
-0.12023296 0.0687692 0.10700982 -0.12935382 -0.14907965 0.102922566 0.095273964 -0.17710309
0.46235162 0.379448 0.3426219 -1.1861084 0.025857793 0.04424636 -0.3742497 0.3644865
-1.1745727 0.004427956 -0.031248897 0.10485529 -0.3327873 0.3067013 0.23178376 -0.3220103
0.123303555 0.17034595 -0.33897132 -0.76949626 -0.19680814 -0.35299712 -0.89469194 0.059295118
-0.47408321 0.22069998 -0.1741831 -0.72994566 0.32168803 0.2394905 0.3713917 0.13354188
-0.3023996 -0.3227486 0.14254999 -2.0800905 -0.21875851 -0.31954947 0.12067637 0.27596134
0.097704895 -0.14957623 -0.070925504 0.08411911 0.29070872 0.08603126 -0.5512068 -0.09191041
-0.8200646 0.41094458 0.07353262 0.09651098 0.13215958 0.15494944 0.24797927 -1.3679719
-0.17104912 -0.1624234 -0.0031012348 -0.13497333 -0.46709028 -0.36029616 -0.72465193 0.1014959
-0.7501626 -0.31804293 -0.0742967 1.2369947 -0.2943045 -0.052414443 -0.27572477 -0.03403876
0.32714522 0.012776243 0.22198524 -0.46523848 -0.05021487 0.610532 -0.6780422 1.4884343
-0.1871916 0.08449007 -0.1575271 -0.24993972 -1.014438 0.60208267 0.31352156 -0.09161121
0.41388994 -0.04322771 0.46143422 0.26818672 0.540542 -0.044248953 -1.4549527 -0.17133926
0.07300058 0.17268565 0.086242504 -0.24967082 0.13530056 -0.23296094 0.013912215 -0.036388047
-0.11586643 0.12592654 -0.369519 0.22414035 0.6057201 0.060550906 0.2023367 -0.11934454
-0.9829715 0.5133962 0.23043667 0.61712146 -0.1057857 -0.0070886705 -0.0335545 0.17407812
0.2921274 -0.13746056 0.299554 -0.538652 0.57268053 -0.9111795 -0.232573 0.102860756
-0.16710192 0.9682727 0.13905945 0.6223813 0.658718 -0.34079632 0.23373778 0.43736187
0.30721357 -0.08939379 0.12860031 -0.31335488 -1.0135182 -0.06234465 0.5539647 -0.08576934
0.19060665 -0.2842995 0.2915477 0.40279713 -1.0112356 -0.058267538 -1.8392175 0.20019478
-0.079033904 0.33767933 0.11343403 0.06784227 -1.0417774 0.09244184 1.2203965 -0.28360158
-0.09953951 -0.3035513 -0.8545454 1.095218 0.38292775 0.14095871 0.11608847 0.019732093
-0.41698763 -0.4320981 -0.13504829 0.14550987 0.5377924 -0.16095333 0.18145701 -0.17738259
0.11061213 -0.5959293 -0.5857368 -0.18267152 -0.3598674 -0.003996458 0.34758952 -0.69310904
-0.10244727 -0.26124626 0.33051568 0.15428255 0.034302294 -0.18569276 0.15911825 -0.23254304
-0.42164117 -0.37728694 0.33668125 -0.13771155 0.035719402 -1.0263454 -0.5140546 0.1766355
-1.7030133 0.118084244 -0.5597663 0.34862655 -0.19758542 -0.16393916 -0.17138246 0.07308831
-0.07565827 0.112411454 0.10049945 0.04669656 -0.006431757 -0.23747137 -0.31852922 -0.29983485
-0.16628945 -0.31826964 0.16385347 0.21297413 -0.108058475 -0.18828478 -0.025191333 -0.35540262
-0.51198316 -0.8651485 -1.4109532 -0.07167821 -0.16004655 0.33741978 0.32869494 0.04312948
00000000: 6b7a d83e 658c 80be 2c24 c43d 0bc7 523e
00000010: 37a3 853d 1a0e 86be 5a7a c1bd 1134 803d
00000020: d6e3 243f bffe b0bf 8d03 d3be f4d1 00c0
00000030: ed20 683d a664 513e c115 39bd 5961 793f
00000040: b33c f6bd ded6 8c3d f727 db3d 5475 04be
00000050: 56a8 18be 11c9 d23d ff1e c33d 835a 35be
00000060: 5ab9 ec3e 0247 c23e 236c af3e 66d2 97bf
00000070: b9d3 d33c ac3b 353d a89d bfbe f99d ba3e
00000080: 6658 96bf 6318 913b b0fd ffbc 5fbe d63d
00000090: 1963 aabe f407 9d3e b958 6d3e 89de a4be
000000a0: 9386 fc3d 2b6f 2e3e a68d adbe b5fd 44bf
000000b0: 1388 49be 0abc b4be 880a 65bf 70df 723d
000000c0: 09bb f2be 2dff 613e 0e5d 32be b8dd 3abf
000000d0: 4bb4 a43e ff3c 753e 0e27 be3e 34bf 083e
000000e0: 1fd4 9abe 4e3f a5be a0f8 113e 3420 05c0
000000f0: 3b02 60be fd9b a3be 2c25 f73d ce4a 8d3e
00000100: 8119 c83d 832a 19be 6441 91bd a446 ac3d
00000110: c6d7 943e 2831 b03d e41b 0dbf 863b bcbd
00000120: c1ef 51bf 5467 d23e 4598 963d 8ca7 c53d
00000130: d754 073e 11ab 1e3e 47ee 7d3e b419 afbf
00000140: 8027 2fbe 5252 26be 163e 4bbb 7336 0abe
00000150: 7526 efbe bd78 b8be ca82 39bf 15dd cf3d
00000160: a80a 40bf 86d6 a2be de28 98bd d855 9e3f
00000170: 14af 96be 87b0 56bd cc2b 8dbe 3a6c 0bbd
00000180: 947f a73e 7253 513c 1950 633e bd33 eebe
00000190: 1cae 4dbd d34b 1c3f 2c94 2dbf 0485 be3f
000001a0: 28af 3fbe 2109 ad3d c94e 21be 33f0 7fbe
000001b0: 1bd9 81bf 1722 1a3f e685 a03e a89e bbbd
000001c0: 62e9 d33e 8a0f 31bd 1b41 ec3e c54f 893e
000001d0: f660 0a3f 643e 35bd e43b babf 8f73 2fbe
000001e0: 5481 953d 82d4 303e e99f b03d b5a9 7fbe
000001f0: 3b8c 0a3e 508d 6ebe 0ff0 633c a20b 15bd
00000200: 614b edbd e3f2 003e 9831 bdbe 0c85 653e
00000210: 7910 1b3f 3a04 783d 5a31 4f3e e96a f4bd
00000220: 05a4 7bbf ef6d 033f 97f7 6b3e acfb 1d3f
00000230: 2ca6 d8bd 1448 e8bb 7270 09bd 8941 323e
00000240: b991 953e 76c2 0cbe 245f 993e 19e5 09bf
00000250: 319b 123f 0f43 69bf 9e27 6ebe a9a8 d23d
00000260: c41c 2bbe b8e0 773f 9a65 0e3e 6254 1f3f
00000270: bea1 283f db7c aebe f558 6f3e e5ed df3e
00000280: 194b 9d3e 1714 b7bd cdaf 033e 0d70 a0be
00000290: f7ba 81bf 1b5d 7fbd a1d0 0d3f d6a7 afbd
000002a0: 642e 433e b48f 91be bd45 953e 6d3b ce3e
000002b0: 2b70 81bf f1a9 6ebd 7b6b ebbf dcff 4c3e
000002c0: 87dc a1bd 4ee4 ac3e 1a50 e83d e3f0 8a3d
000002d0: f658 85bf 2652 bd3d f435 9c3f 3a34 91be
000002e0: 5fdb cbbd 136b 9bbe 7dc3 5abf 1a30 8c3f
000002f0: 1b0f c43e 7b57 103e cbbf ed3d 33a5 a13c
00000300: 677f d5be f63b ddbe 194a 0abe 8a00 153e
00000310: c3ac 093f f3d0 24be decf 393e c8a3 35be
00000320: 9d88 e23d d38e 18bf d9f2 15bf 3e0e 3bbe
00000330: 8a40 b8be b8f4 82bb 41f7 b13e 986f 31bf
00000340: e0cf d1bd 12c2 85be 5a39 a93e 3ffc 1d3e
00000350: 9080 0c3d 3e26 3ebe e5ef 223e c31f 6ebe
00000360: 5ae1 d7be c12b c1be 7c61 ac3e 4204 0dbe
00000370: 824e 123d 495f 83bf 1599 03bf f0df 343e
00000380: 57fc d9bf 27d6 f13d d84c 0fbf 2e7f b23e
00000390: d553 4abe abdf 27be e27e 2fbe 53af 953d
000003a0: b9f2 9abd fa37 e63d a8d2 cd3d e444 3f3d
000003b0: 7dc1 d2bb b22b 73be 4316 a3be f483 99be
000003c0: c847 2abe 3df4 a2be 34c9 273e e415 5a3e
000003d0: c34d ddbd bacd 40be 0e5e cebc 55f7 b5be
000003e0: 5411 03bf 5f7a 5dbf 1d9a b4bf 06cc 92bd
000003f0: 3ee3 23be 49c2 ac3e b44a a83e 8aa8 303d

sequential/dense_2/MatMul f4 [9, 64]
-0.1171742 -0.10526604 -1.6500477 -9.437006 -0.30792692 -0.2657374 0.67802185 -0.098579444
0.21058887 -0.27592564 0.25576606 -2.0327218 -0.035779946 -0.9192766 -0.076913096 -3.932243
-1.381656 0.012182105 0.2191722 -0.63265944 0.0037553678 0.32163987 -2.2797844 0.57656634
-0.20703563 -1.0352645 -2.2395153 -0.24723762 -0.92132217 -2.136802 0.024281409 0.4898948
-1.0294003 -0.4750671 0.15187429 -0.90106237 0.17030637 -0.24082993 -0.6467788 -0.13826059
-3.353058 -1.1282595 0.1509692 -0.016825149 -0.055035654 -3.2706647 0.34061402 -0.71206605
0.20959634 -0.15142211 -0.08018112 0.19729353 0.22111861 0.15076786 0.14010763 -0.25230595
0.1265696 -0.6997003 0.049964603 -0.06830934 -0.021405023 -3.3118901 0.19589727 0.10784525
-0.45790684 -0.22200519 -0.95122164 -0.31511417 -0.058635883 0.28216425 0.17962806 -1.0142277
0.29133362 0.15240562 0.10651743 -1.3418076 -0.02704645 -0.15562484 -0.1454369 -0.15022752
0.23243614 -0.16987215 -0.6977623 0.44829753 -0.06574904 -0.14102823 0.43726084 -0.82861555
-0.7364076 -0.32105315 0.3339794 -0.4202719 0.02921474 -0.03950097 0.22134696 -0.54579586
0.17077836 -0.4598395 0.14836964 -0.59713733 -4.232097 0.22785671 -0.059991267 -0.2344659
-4.639671 -0.9427212 0.31909302 0.25267613 0.24433784 -3.073321 0.09122752 -8.685784
0.026697349 -0.0759262 0.17343317 0.180274 0.2708141 0.22240713 -0.105172746 0.05151565
0.17594084 0.34782663 -0.07097918 -1.1269807 0.22516122 -0.8116225 0.18011405 0.15860802
-0.005976305 -0.41220424 0.13135692 -2.5948021 0.19026877 -0.25719443 0.3910201 -0.30486095
0.29239655 0.25062063 -0.11601714 1.1397135 0.04537311 0.15989757 -0.031056603 0.06537897
0.1885229 -0.20067942 -0.10149535 0.4172804 -0.015655803 -0.17379938 0.087933816 0.34161422
-2.1847298 -0.10965108 0.1942489 -0.039912507 -1.1428845 0.15824345 0.24870293 -0.99265313
0.46324676 -0.18603422 0.2372645 0.531443 -1.6353548 -0.2722766 -0.5797709 0.11045411
-2.4743102 -0.11515418 0.3925228 -0.032387517 0.18095662 -0.42291683 -0.045249306 -2.006826
-0.1220945 0.15763661 0.060817152 0.12814122 0.16145979 0.25557402 0.09125838 -0.112376235
0.157543 0.1785763 -0.19073054 -0.35489035 -0.20088026 -1.1293693 0.16667 0.1701385
-0.2983822 0.40091452 -3.7295651 0.6863867 -0.24613859 -3.339548 0.34896338 0.32409593
-1.3697832 0.20203751 0.055731893 -0.17756206 -0.07575462 -1.1497942 0.1693188 -2.8831294
-7.465915 0.0700011 -3.8097155 -4.248204 -0.104713336 0.4664944 -3.219663 -0.24687572
-0.29780897 0.8660693 0.3726033 -3.1430154 0.28331295 0.071459636 -0.09553839 -2.4613793
-0.4712861 0.19718772 -0.28983244 0.9216704 0.14921449 0.07520441 0.06485734 0.44246897
0.13157445 0.45444083 -0.7039972 0.025031492 0.33128172 -0.09139842 0.16994429 -0.14303869
-2.3729799 0.2604268 2.9633331 -1.351928 -0.12008489 -0.52225125 0.297251 -0.23432139
0.21897513 -0.6798809 0.47834626 0.60037667 0.19842798 -4.5255656 0.08133023 -0.023371428
00000000: 07f9 efbd b995 d7bd c334 d3bf fafd 16c1
00000010: 99a8 9dbe bc0e 88be d792 2d3f 05e4 c9bd
00000020: 9ca4 573e 2046 8dbe c5f3 823e 1d18 02c0
00000030: fe8d 12bd b655 6bbf 9d84 9dbd dfa9 7bc0
00000040: 1bda b0bf 7497 473c ad6e 603e f8f5 21bf
00000050: 9e1c 763b fbad a43e fde7 11c0 da99 133f
00000060: 2601 54be 8c83 84bf 3854 0fc0 dc2b 7dbe
00000070: c5db 6bbf 5dc1 08c0 cee9 c63c 7ed3 fa3e
00000080: 64c3 83bf ff3b f3be ef84 1b3e 06ac 66bf
00000090: cb64 2e3e 1f9c 76be 4c93 25bf 2f94 0dbe
000000a0: 8198 56c0 cf6a 90bf ac97 1a3e e5d4 89bc
000000b0: 116d 61bd 9252 51c0 f664 ae3e f649 36bf
000000c0: 6ca0 563e 660e 1bbe 0036 a4bd 5107 4a3e
000000d0: eb6c 623e e462 1a3e 6078 0f3e 3f2e 81be
000000e0: 769b 013e 8f1f 33bf afa7 4c3d c4e5 8bbd
000000f0: 9659 afbc 02f6 53c0 4b99 483e f8dd dc3d
00000100: c472 eabe 5455 63be 4383 73bf a556 a1be
00000110: 2e2c 70bd d577 903e 6bf0 373e 37d2 81bf
00000120: ae29 953e 3810 1c3e cf25 da3d 5ac0 abbf
00000130: 8490 ddbc 1e5c 1fbe 69ed 14be 3ed5 19be
00000140: bd03 6e3e f7f2 2dbe 8da0 32bf 4187 e53e
00000150: 6fa7 86bd b469 10be a7e0 df3e 2620 54bf
00000160: 3585 3cbf 1461 a4be 59ff aa3e e12d d7be
00000170: c053 ef3c c5cb 21bd c7a8 623e 47b9 0bbf
00000180: 86e0 2e3e 1570 ebbe 36ee 173e fedd 18bf
00000190: 576d 87c0 4553 693e 67b9 75bd d417 70be
000001a0: 2f78 94c0 2d56 71bf 2960 a33e c45e 813e
000001b0: b333 7a3e 4bb1 44c0 7ed5 ba3d f9f8 0ac1
000001c0: 66b4 da3c 327f 9bbd 7798 313e bf99 383e
000001d0: 25a8 8a3e b2be 633e cf64 d7bd 1302 533d
000001e0: d629 343e 5516 b23e 885d 91bd e740 90bf
000001f0: aa90 663e 7ec6 4fbf d16f 383e 246a 223e
00000200: e1d4 c3bb 6f0c d3be 6e82 063e 3d11 26c0
00000210: d1d5 423e fdae 83be c933 c83e bc16 9cbe
00000220: 00b5 953e 5951 803e 659a edbd 22e2 913f
00000230: 27d9 393d 30bc 233e 6b6a febc 69e5 853d
00000240: 260c 413e e87e 4dbe cbdc cfbd c7a5 d53e
00000250: 9940 80bc 77f8 31be a516 b43d 0fe8 ae3e
00000260: 9dd2 0bc0 bf90 e0bd 2fe9 463e 4c7b 23bd
00000270: 0a4a 92bf 920a 223e fbab 7e3e 841e 7ebf
00000280: ae2e ed3e c17f 3ebe 77f5 723e a60c 083f
00000290: 4e53 d1bf d767 8bbe de6b 14bf c435 e23d
000002a0: 195b 1ec0 f4d5 ebbd c0f8 c83e c6a8 04bd
000002b0: b14c 393e 8e88 d8be 5657 39bd d66f 00c0
000002c0: ae0c fabd 7e6b 213e 681b 793d 7437 033e
000002d0: b755 253e 99da 823e ace5 ba3d 8325 e6bd
000002e0: f452 213e b5dc 363e de4e 43be 30b4 b5be
000002f0: 8eb3 4dbe 2c8f 90bf 8aab 2a3e c938 2e3e
00000300: 8dc5 98be ab44 cd3e 32b1 6ec0 0ab7 2f3f
00000310: c10b 7cbe 28bb 55c0 54ab b23e e7ef a53e
00000320: 0e55 afbf ece2 4e3e 2047 643d d4d2 35be
00000330: 3d25 9bbd 752c 93bf e861 2d3e 3185 38c0
00000340: c7e8 eec0 bd5c 8f3d 61d2 73c0 4af1 87c0
00000350: f273 d6bd 5bd8 ee3e f50e 4ec0 fdcc 7cbe
00000360: 6b7a 98be b8b6 5d3f dcc5 be3e 2a27 49c0
00000370: 650e 913e 6e59 923d a2a9 c3bd 3d87 1dc0
00000380: 694c f1be 94eb 493e eb64 94be 97f2 6b3f
00000390: afcb 183e c504 9a3d edd3 843d 4b8b e23e
000003a0: 74bb 063e 78ac e83e 2939 34bf d80e cd3c
000003b0: c29d a93e 182f bbbd e005 2e3e bc78 12be
000003c0: e7de 17c0 a956 853e 40a7 3d40 fa0b adbf
000003d0: 11ef f5bd 42b2 05bf 4831 983e f2f1 6fbe
000003e0: 043b 603e ad0c 2ebf cde9 f43e 49b2 193f
000003f0: b430 4b3e 6fd1 90c0 7790 a63d 7075 bfbc
