assets/rah_model.tflite (tflite, 82364 bytes, 6 tensors)

sequential/lstm/Read_2/ReadVariableOp f4 [256]
-0.07726308 -2.0374978 3.3981707 -1.5464898 0.46440783 2.9545577 -0.03863141 -0.73080444
0.8996536 -0.225102 -2.8695238 0.5034587 -2.151515 1.1054759 -1.134243 -2.2428803
-3.107079 0.091388695 0.5552817 -0.9094357 -0.030445315 1.1706258 1.5026258 0.5039895
1.6576842 0.6307666 1.8017186 -2.2620718 -0.14285319 -2.4294567 -1.5577618 -3.67722
-1.9111009 -1.7857063 -0.5448648 0.44859767 -0.94412774 -1.4762006 -1.1670157 0.5078697
0.04903192 0.86029524 -0.22606874 0.141822 -0.3243513 -0.48602977 1.4367869 -0.22489245
-0.94465125 1.2375362 -0.88198817 -1.6567743 -2.1949914 -0.11702517 -1.1989148 0.4463981
0.5271261 -2.910641 0.6212608 0.7871929 -1.8123024 -1.3021029 -0.04206502 0.32634532
1.0 1.0 1.0 1.0 1.0 1.0 1.0 1.0
1.0 1.0 1.0 1.0 1.0 1.0 1.0 1.0
1.0 1.0 1.0 1.0 1.0 1.0 1.0 1.0
1.0 1.0 1.0 1.0 1.0 1.0 1.0 1.0
1.0 1.0 1.0 1.0 1.0 1.0 1.0 1.0
1.0 1.0 1.0 1.0 1.0 1.0 1.0 1.0
1.0 1.0 1.0 1.0 1.0 1.0 1.0 1.0
1.0 1.0 1.0 1.0 1.0 1.0 1.0 1.0
-0.3667717 -0.39153704 2.9472153 -0.06328604 0.15775885 -1.0093285 -0.0078700315 -0.2984427
0.3139589 0.39534217 -2.5335348 2.1582248 -3.6003227 0.29787907 0.5441769 -0.041331198
1.4924325 -0.24744904 4.600059 -0.25367317 -0.031990297 -0.107160226 0.68172836 -0.4650839
-0.40859997 -4.2956285 -1.5940406 -0.91495895 0.31318074 -1.0182176 1.0939518 3.036221
2.193722 -0.27321446 -0.8068059 0.13963258 1.7768904 0.065543704 0.73384196 -0.8713522
-0.55996376 0.04692558 1.1526266 1.0916544 0.3222003 0.33108938 -1.2212726 -0.25585666
0.051586907 -0.63779646 1.586041 0.20605336 -1.0761296 0.6363616 0.30259442 -0.49527028
0.8647227 0.12719811 -0.88246524 -0.0063624782 0.27402723 1.3981622 0.3203166 -0.38481346
-2.8160846 -1.6869918 1.9287016 -0.72989786 0.110916235 1.8071908 -0.12135543 0.34090084
-2.1595602 -0.7257456 -0.91475606 0.83337045 3.5583715 -0.98483455 0.013174957 1.2659869
-3.1140134 -0.77387476 1.0626553 0.5170107 0.66293424 0.76725703 -1.513049 0.890494
1.0151067 0.7986656 0.6156075 -2.1329432 -0.67727953 -2.3293827 -1.7877027 -2.5240939
1.5279156 0.102556966 -0.5342275 -0.67586005 3.0014985 1.1036971 -0.8629651 -0.3278518
-0.27514195 1.258353 -2.0031962 0.02492083 -0.56764495 -0.36721045 1.3636668 -1.1597735
0.18670315 -1.9334105 0.014756661 -1.6645789 -2.0532432 -0.5379023 1.306344 -0.25952318
0.0511719 2.0215852 -0.20358475 0.17946866 -1.2497009 -1.5074553 0.13672097 -0.08109809
00000000: 1b3c 9ebd 5d66 02c0 a17b 5940 61f3 c5bf
00000010: ddc6 ed3e 7917 3d40 f83b 1ebd 0016 3bbf
00000020: b34f 663f 2481 66be 47a6 37c0 abe2 003f
00000030: 6cb2 09c0 3c80 8d3f e02e 91bf 5a8b 0fc0
00000040: 62da 46c0 ff29 bb3d f126 0e3f c7d0 68bf
00000050: 7468 f9bc 11d7 953f 0b56 c03f 7505 013f
00000060: ff2e d43f eb79 213f b79e e63f c9c5 10c0
00000070: 1b48 12be 387c 1bc0 bd64 c7bf 9357 6bc0
00000080: f49e f4bf 0692 e4bf 427c 0bbf 98ae e53e
00000090: 5bb2 71bf 24f4 bcbf c560 95bf c003 023f
000000a0: b2d5 483d 4f3c 5c3f 907e 67be c939 113e
000000b0: 6011 a6be e5d8 f8be a2e8 b73f 354a 66be
000000c0: aad4 71bf 9667 9e3f fac9 61bf 2e11 d4bf
000000d0: bd7a 0cc0 e4aa efbd 0a76 99bf 4b8e e43e
000000e0: bcf1 063f f147 3ac0 f30a 1f3f 7985 493f
000000f0: 86f9 e7bf 4fab a6bf 5f4c 2cbd bc16 a73e
00000100: 0000 803f 0000 803f 0000 803f 0000 803f
00000110: 0000 803f 0000 803f 0000 803f 0000 803f
00000120: 0000 803f 0000 803f 0000 803f 0000 803f
00000130: 0000 803f 0000 803f 0000 803f 0000 803f
00000140: 0000 803f 0000 803f 0000 803f 0000 803f
00000150: 0000 803f 0000 803f 0000 803f 0000 803f
00000160: 0000 803f 0000 803f 0000 803f 0000 803f
00000170: 0000 803f 0000 803f 0000 803f 0000 803f
00000180: 0000 803f 0000 803f 0000 803f 0000 803f
00000190: 0000 803f 0000 803f 0000 803f 0000 803f
000001a0: 0000 803f 0000 803f 0000 803f 0000 803f
000001b0: 0000 803f 0000 803f 0000 803f 0000 803f
000001c0: 0000 803f 0000 803f 0000 803f 0000 803f
000001d0: 0000 803f 0000 803f 0000 803f 0000 803f
000001e0: 0000 803f 0000 803f 0000 803f 0000 803f
000001f0: 0000 803f 0000 803f 0000 803f 0000 803f
00000200: 80c9 bbbe 8b77 c8be 2d9f 3c40 1d9c 81bd
00000210: 898b 213e ad31 81bf 4ef1 00bc 7bcd 98be
00000220: 39bf a03e 4a6a ca3e 6f25 22c0 5b20 0a40
00000230: b06b 66c0 9b83 983e 2d4f 0b3f e74a 29bd
00000240: 0708 bf3f 4863 7dbe af33 9340 73e1 81be
00000250: 4208 03bd d276 dbbd c085 2e3f 7a1f eebe
00000260: 0434 d1be ca75 89c0 8609 ccbf c03a 6abf
00000270: 3a59 a03e f454 82bf 9d06 8c3f 7251 4240
00000280: f165 0c40 c4e2 8bbe d58a 4ebf d8fb 0e3e
00000290: 2571 e33f c73b 863d 11dd 3b3f f010 5fbf
000002a0: c959 0fbf 0935 403d 4589 933f 55bb 8b3f
000002b0: 70f7 a43e 8c84 a93e a952 9cbf a5ff 82be
000002c0: cb4c 533d a146 23bf 6403 cb3f a7ff 523e
000002d0: 9dbe 89bf 98e8 223f a8ed 9a3e 1194 fdbe
000002e0: 785e 5d3f 3940 023e 3ee9 61bf 567c d0bb
000002f0: 4c4d 8c3e fbf6 b23f 8a00 a43e 4506 c5be
00000300: bb3a 34c0 59ef d7bf b2df f63f 96da 3abf
00000310: 0d28 e33d 0752 e73f 3289 f8bd 8e8a ae3e
00000320: 3c36 0ac0 77ca 39bf 742d 6abf c457 553f
00000330: 5cbc 6340 1e1e 7cbf c6db 573c dc0b a23f
00000340: ff4b 47c0 a81c 46bf 1705 883f d05a 043f
00000350: 0fb6 293f f56a 443f 97ab c1bf 6af7 633f
00000360: 04ef 813f 5975 4c3f 7498 1d3f 2482 08c0
00000370: 3162 2dbf 9b14 15c0 71d3 e4bf c18a 21c0
00000380: bd92 c33f 6309 d23d 22c3 08bf 2a05 2dbf
00000390: 8d18 4040 f245 8d3f 48eb 5cbf 31dc a7be
000003a0: 68df 8cbe b611 a13f 5e34 00c0 c526 cc3c
000003b0: 2e51 11bf 0203 bcbe a28c ae3f 7573 94bf
000003c0: 1c2f 3f3e ff79 f7bf ecc5 713c ec10 d5bf
000003d0: 5668 03c0 f7b3 09bf 4836 a73f 39e0 84be
000003e0: a099 513d a761 0140 8578 50be a2c6 373e
000003f0: 33f6 9fbf 4cf4 c0bf 9500 0c3e c116 a6bd

sequential/dense/BiasAdd/ReadVariableOp f4 [9]
-0.628781 -0.042273927 0.14942718 -1.2066963 -2.3136003e-05 0.9608704 -0.025054678 -0.044163086
0.3953902
00000000: cbf7 20bf 6d27 2dbd 7003 193e 0675 9abf
00000010: 3014 c2b7 9afb 753f 783f cdbc 5ae4 34bd
00000020: 9670 ca3e

sequential/dense/MatMul f4 [9, 64]
-0.7143793 -0.36355278 -4.211928 -0.32454094 0.11082789 0.11126442 0.59086585 0.70888823
-0.7314935 -0.43973455 0.5925255 -0.6807706 2.9210408 0.23864079 0.22856368 -1.2251599
1.0010898 1.3495433 -0.71648735 0.075991616 -0.15652226 -1.000888 0.0651846 0.39359227
-0.37373737 0.93014616 1.3617867 -3.3050866 -0.62178636 -0.2745505 -0.6556289 -0.72803664
-1.064375 1.9071606 1.1156667 0.41063908 -0.8983725 -0.8936424 0.52130806 0.25039664
-0.36878368 -0.24612927 -0.17201866 -1.6143817 -0.79045266 0.2103725 1.0664833 -0.14885442
-0.5709746 1.3487029 -1.3548127 -0.7948834 -1.3040671 0.4452761 0.30087215 -0.11826148
0.13868755 -0.56807446 -0.30316794 0.17944282 0.3588189 -1.3911341 -0.2654877 1.2390704
-0.21554868 0.07233636 1.4822197 0.03660124 0.20728941 0.11462188 0.18586484 0.33986732
-0.22139335 0.37625775 0.6717084 -1.9734017 -3.678691 -0.6507038 0.29661343 1.7865357
0.16856709 0.7370874 0.30097315 0.5980481 0.19886275 -0.22731832 0.111316286 0.41192183
0.5845312 -0.28858837 0.8396467 1.5241604 -0.7220332 -0.09721205 -0.39586243 1.3353992
-0.3098807 -0.28471056 0.24536374 0.99193436 -1.1467725 -0.36170384 -0.64114827 0.17767222
0.5083428 -0.017834904 -0.66309524 0.44638467 -0.15034881 -0.21210842 -0.4362075 0.54307866
0.13902234 0.6483947 -1.1067426 0.19289328 0.34206998 0.22421925 -0.58582276 -0.13091423
-0.30399358 1.0403019 0.19437964 -0.4422692 0.4807753 -0.34135076 0.4111154 -0.33224687
0.42501342 0.81452173 2.884456 -0.15438202 0.43588665 -0.3650993 0.40006372 0.39604113
0.073592156 0.85071254 -1.4059685 -0.730957 -2.8778765 -0.0961021 -0.13751647 0.40300465
-3.1947236 -0.077896915 0.28410444 1.142185 0.7353 0.10281307 2.5865872 0.22740696
0.8196236 -0.07307417 -0.83897763 1.6049222 -0.8567662 2.2185483 -0.13014936 -0.22479862
2.6118948 -0.21944605 -0.6893147 0.0929478 -0.22157837 -0.66576666 -0.16425964 1.1139742
0.33061197 -0.19116043 0.27028382 -0.683514 0.49602535 0.11367058 -0.975805 0.52249354
0.7444067 0.3359354 0.19208781 0.20558257 1.5344911 -0.40500686 -0.53955746 0.24978973
-1.1838447 0.53438586 0.97656405 -0.2095293 -0.41332006 0.51899517 -0.045822244 0.1911631
0.022559954 0.8263447 -1.6030703 -0.22604355 -0.53039104 -0.29086003 -0.45964378 -2.2264872
-0.008230097 -0.9415893 -0.60385585 0.1223295 3.8628032 0.45145148 0.18504281 -0.5207568
4.6310377 0.7703244 -1.0801417 -0.20681322 -0.20600562 1.459089 0.3884839 3.6325006
-0.86992073 1.0704812 -0.87834376 -1.0908098 0.062282104 -2.2972708 -1.0092818 -2.0114405
0.21310169 5.0115895 1.0596585 0.35232025 0.51815253 1.4421208 0.33492917 -0.25545308
0.15076546 -1.071146 -0.35642973 0.20531052 -0.76933736 0.98735654 2.2448218 1.0658939
-0.8210284 -0.4562848 0.66221124 -1.0570319 -2.2683332 -0.2440272 -0.09953875 0.6820898
1.4391377 -0.17122635 0.572128 -0.446262 0.42253578 -0.6111563 2.239727 0.39198682
00000000: 90e1 36bf 9723 babe 1dc8 86c0 3b2a a6be
00000010: bcf9 e23d 9ade e33d fc42 173f b379 353f
00000020: 2843 3bbf e324 e1be c0af 173f fb46 2ebf
00000030: 55f2 3a40 405e 743e 990c 6a3e 0ad2 9cbf
00000040: b623 803f d6bd ac3f b76b 37bf 7ea1 9b3d
00000050: 5f47 20be 191d 80bf 817f 853d ed84 c93e
00000060: 815a bfbe 0f1e 6e3f 074f ae3f 8a86 53c0
00000070: 642d 1fbf e291 8cbe 4cd7 27bf 9c60 3abf
00000080: 713d 88bf d71d f43f 2bce 8e3f 493f d23e
00000090: bdfb 65bf c0c5 64bf 7274 053f fd33 803e
000000a0: 37d1 bcbe 5009 7cbe a925 30be 0fa4 cebf
000000b0: 1b5b 4abf e36b 573e 8682 883f 4b6d 18be
000000c0: 642b 12bf 4ca2 ac3f 816a adbf 7a7d 4bbf
000000d0: aceb a6bf 3bfb e33e ea0b 9a3e 1333 f2bd
000000e0: 1c04 0e3e 546d 11bf d438 9bbe dcbf 373e
000000f0: 1cb7 b73e af10 b2bf 01ee 87be dc99 9e3f
00000100: cbb8 5cbe 1625 943d 60b9 bd3f 2feb 153d
00000110: ad43 543e e0be ea3d 5a53 3e3e 1703 ae3e
00000120: f0b4 62be dba4 c03e 15f5 2b3f 6d98 fcbf
00000130: ac6f 6bc0 8694 26bf b7dd 973e 34ad e43f
00000140: da9c 2c3e c3b1 3c3f 2719 9a3e ae19 193f
00000150: ada2 4b3e 22c6 68be cbf9 e33d 6be7 d23e
00000160: d6a3 153f dbc1 93be 16f3 563f b017 c33f
00000170: 2bd7 38bf 1c17 c7bd 7bae cabe 5cee aa3f
00000180: afa8 9ebe 95c5 91be a240 7b3e 69ef 7d3f
00000190: 71c9 92bf 3f31 b9be 4b22 24bf b5ef 353e
000001a0: c122 023f 811a 92bc 9cc0 29bf 888c e43e
000001b0: 0af5 19be f332 59be 9756 dfbe 3407 0b3f
000001c0: df5b 0e3e 32fd 253f bea9 8dbf d185 453e
000001d0: cc23 af3e bb99 653e 7bf8 15bf 610e 06be
000001e0: 0ca5 9bbe 9d28 853f 750b 473e 1c71 e2be
000001f0: 2e28 f63e 87c5 aebe b87d d23e 431c aabe
00000200: 5c9b d93e 7f84 503f ed9a 3840 5216 1ebe
00000210: 892c df3e 4cee babe 27d5 cc3e e7c5 ca3e
00000220: 7cb7 963d 4cc8 593f c7f6 b3bf ff1f 3bbf
00000230: 212f 38c0 2ed1 c4bd 1ed1 0cbe a056 ce3e
00000240: 5a76 4cc0 6b88 9fbd 2376 913e 1e33 923f
00000250: 9f3c 3c3f a98f d23d a58a 2540 5fdd 683e
00000260: dad2 513f e9a7 95bd 3dc7 56bf 176e cd3f
00000270: 0855 5bbf b2fc 0d40 e045 05be 9c31 66be
00000280: 4929 2740 77b6 60be ee76 30bf 6b5b be3d
00000290: 71e5 62be af6f 2abf ae33 28be b596 8e3f
000002a0: f945 a93e 8fbf 43be a462 8a3e c6fa 2ebf
000002b0: 09f7 fd3e 1fcc e83d 5bce 79bf 23c2 053f
000002c0: 7091 3e3f baff ab3e abb2 443e 3d84 523e
000002d0: 346a c43f 0f5d cfbe 7020 0abf e1c8 7f3e
000002e0: 3988 97bf 83cd 083f 1a00 7a3f d98e 56be
000002f0: b09e d3be dedc 043f 1bb0 3bbd 42c0 433e
00000300: a7cf b83c 548b 533f 6831 cdbf f677 67be
00000310: b5c7 07bf 9beb 94be 6e56 ebbe c47e 0ec0
00000320: 87d7 06bc ff0b 71bf 4c96 1abf e487 fa3d
00000330: 2b38 7740 a624 e73e dd7b 3d3e 5150 05bf
00000340: 7631 9440 fb33 453f 1542 8abf d8c6 53be
00000350: 23f3 52be 6ec3 ba3f 5de7 c63e e47a 6840
00000360: 20b3 5ebf 8705 893f 23db 60bf a89f 8bbf
00000370: 851b 7f3d 7c06 13c0 2530 81bf 71bb 00c0
00000380: 5437 5a3e f15e a040 e4a2 873f 5263 b43e
00000390: a5a5 043f 6a97 b83f d67b ab3e bfca 82be
000003a0: 4362 1a3e 501b 89bf f57d b6be ec3c 523e
000003b0: 4bf3 44bf 66c3 7c3f 29ab 0f40 366f 883f
000003c0: eb2e 52bf 299e e9be ad86 293f d24c 87bf
000003d0: 5f2c 11c0 44e2 79be f9da cbbd 709d 2e3f
000003e0: aa35 b83f f655 2fbe fb76 123f 747c e4be
000003f0: 9c56 d83e bd74 1cbf b057 0f40 7fb2 c83e

sequential/lstm/Read_2/ReadVariableOp1 f4 [256]
-0.07726308 -2.0374978 3.3981707 -1.5464898 0.46440783 2.9545577 -0.03863141 -0.73080444
0.8996536 -0.225102 -2.8695238 0.5034587 -2.151515 1.1054759 -1.134243 -2.2428803
-3.107079 0.091388695 0.5552817 -0.9094357 -0.030445315 1.1706258 1.5026258 0.5039895
1.6576842 0.6307666 1.8017186 -2.2620718 -0.14285319 -2.4294567 -1.5577618 -3.67722
-1.9111009 -1.7857063 -0.5448648 0.44859767 -0.94412774 -1.4762006 -1.1670157 0.5078697
0.04903192 0.86029524 -0.22606874 0.141822 -0.3243513 -0.48602977 1.4367869 -0.22489245
-0.94465125 1.2375362 -0.88198817 -1.6567743 -2.1949914 -0.11702517 -1.1989148 0.4463981
0.5271261 -2.910641 0.6212608 0.7871929 -1.8123024 -1.3021029 -0.04206502 0.32634532
1.0 1.0 1.0 1.0 1.0 1.0 1.0 1.0
1.0 1.0 1.0 1.0 1.0 1.0 1.0 1.0
1.0 1.0 1.0 1.0 1.0 1.0 1.0 1.0
1.0 1.0 1.0 1.0 1.0 1.0 1.0 1.0
1.0 1.0 1.0 1.0 1.0 1.0 1.0 1.0
1.0 1.0 1.0 1.0 1.0 1.0 1.0 1.0
1.0 1.0 1.0 1.0 1.0 1.0 1.0 1.0
1.0 1.0 1.0 1.0 1.0 1.0 1.0 1.0
-0.3667717 -0.39153704 2.9472153 -0.06328604 0.15775885 -1.0093285 -0.0078700315 -0.2984427
0.3139589 0.39534217 -2.5335348 2.1582248 -3.6003227 0.29787907 0.5441769 -0.041331198
1.4924325 -0.24744904 4.600059 -0.25367317 -0.031990297 -0.107160226 0.68172836 -0.4650839
-0.40859997 -4.2956285 -1.5940406 -0.91495895 0.31318074 -1.0182176 1.0939518 3.036221
2.193722 -0.27321446 -0.8068059 0.13963258 1.7768904 0.065543704 0.73384196 -0.8713522
-0.55996376 0.04692558 1.1526266 1.0916544 0.3222003 0.33108938 -1.2212726 -0.25585666
0.051586907 -0.63779646 1.586041 0.20605336 -1.0761296 0.6363616 0.30259442 -0.49527028
0.8647227 0.12719811 -0.88246524 -0.0063624782 0.27402723 1.3981622 0.3203166 -0.38481346
-2.8160846 -1.6869918 1.9287016 -0.72989786 0.110916235 1.8071908 -0.12135543 0.34090084
-2.1595602 -0.7257456 -0.91475606 0.83337045 3.5583715 -0.98483455 0.013174957 1.2659869
-3.1140134 -0.77387476 1.0626553 0.5170107 0.66293424 0.76725703 -1.513049 0.890494
1.0151067 0.7986656 0.6156075 -2.1329432 -0.67727953 -2.3293827 -1.7877027 -2.5240939
1.5279156 0.102556966 -0.5342275 -0.67586005 3.0014985 1.1036971 -0.8629651 -0.3278518
-0.27514195 1.258353 -2.0031962 0.02492083 -0.56764495 -0.36721045 1.3636668 -1.1597735
0.18670315 -1.9334105 0.014756661 -1.6645789 -2.0532432 -0.5379023 1.306344 -0.25952318
0.0511719 2.0215852 -0.20358475 0.17946866 -1.2497009 -1.5074553 0.13672097 -0.08109809
00000000: 1b3c 9ebd 5d66 02c0 a17b 5940 61f3 c5bf
00000010: ddc6 ed3e 7917 3d40 f83b 1ebd 0016 3bbf
00000020: b34f 663f 2481 66be 47a6 37c0 abe2 003f
00000030: 6cb2 09c0 3c80 8d3f e02e 91bf 5a8b 0fc0
00000040: 62da 46c0 ff29 bb3d f126 0e3f c7d0 68bf
00000050: 7468 f9bc 11d7 953f 0b56 c03f 7505 013f
00000060: ff2e d43f eb79 213f b79e e63f c9c5 10c0
00000070: 1b48 12be 387c 1bc0 bd64 c7bf 9357 6bc0
00000080: f49e f4bf 0692 e4bf 427c 0bbf 98ae e53e
00000090: 5bb2 71bf 24f4 bcbf c560 95bf c003 023f
000000a0: b2d5 483d 4f3c 5c3f 907e 67be c939 113e
000000b0: 6011 a6be e5d8 f8be a2e8 b73f 354a 66be
000000c0: aad4 71bf 9667 9e3f fac9 61bf 2e11 d4bf
000000d0: bd7a 0cc0 e4aa efbd 0a76 99bf 4b8e e43e
000000e0: bcf1 063f f147 3ac0 f30a 1f3f 7985 493f
000000f0: 86f9 e7bf 4fab a6bf 5f4c 2cbd bc16 a73e
00000100: 0000 803f 0000 803f 0000 803f 0000 803f
00000110: 0000 803f 0000 803f 0000 803f 0000 803f
00000120: 0000 803f 0000 803f 0000 803f 0000 803f
00000130: 0000 803f 0000 803f 0000 803f 0000 803f
00000140: 0000 803f 0000 803f 0000 803f 0000 803f
00000150: 0000 803f 0000 803f 0000 803f 0000 803f
00000160: 0000 803f 0000 803f 0000 803f 0000 803f
00000170: 0000 803f 0000 803f 0000 803f 0000 803f
00000180: 0000 803f 0000 803f 0000 803f 0000 803f
00000190: 0000 803f 0000 803f 0000 803f 0000 803f
000001a0: 0000 803f 0000 803f 0000 803f 0000 803f
000001b0: 0000 803f 0000 803f 0000 803f 0000 803f
000001c0: 0000 803f 0000 803f 0000 803f 0000 803f
000001d0: 0000 803f 0000 803f 0000 803f 0000 803f
000001e0: 0000 803f 0000 803f 0000 803f 0000 803f
000001f0: 0000 803f 0000 803f 0000 803f 0000 803f
00000200: 80c9 bbbe 8b77 c8be 2d9f 3c40 1d9c 81bd
00000210: 898b 213e ad31 81bf 4ef1 00bc 7bcd 98be
00000220: 39bf a03e 4a6a ca3e 6f25 22c0 5b20 0a40
00000230: b06b 66c0 9b83 983e 2d4f 0b3f e74a 29bd
00000240: 0708 bf3f 4863 7dbe af33 9340 73e1 81be
00000250: 4208 03bd d276 dbbd c085 2e3f 7a1f eebe
00000260: 0434 d1be ca75 89c0 8609 ccbf c03a 6abf
00000270: 3a59 a03e f454 82bf 9d06 8c3f 7251 4240
00000280: f165 0c40 c4e2 8bbe d58a 4ebf d8fb 0e3e
00000290: 2571 e33f c73b 863d 11dd 3b3f f010 5fbf
000002a0: c959 0fbf 0935 403d 4589 933f 55bb 8b3f
000002b0: 70f7 a43e 8c84 a93e a952 9cbf a5ff 82be
000002c0: cb4c 533d a146 23bf 6403 cb3f a7ff 523e
000002d0: 9dbe 89bf 98e8 223f a8ed 9a3e 1194 fdbe
000002e0: 785e 5d3f 3940 023e 3ee9 61bf 567c d0bb
000002f0: 4c4d 8c3e fbf6 b23f 8a00 a43e 4506 c5be
00000300: bb3a 34c0 59ef d7bf b2df f63f 96da 3abf
00000310: 0d28 e33d 0752 e73f 3289 f8bd 8e8a ae3e
00000320: 3c36 0ac0 77ca 39bf 742d 6abf c457 553f
00000330: 5cbc 6340 1e1e 7cbf c6db 573c dc0b a23f
00000340: ff4b 47c0 a81c 46bf 1705 883f d05a 043f
00000350: 0fb6 293f f56a 443f 97ab c1bf 6af7 633f
00000360: 04ef 813f 5975 4c3f 7498 1d3f 2482 08c0
00000370: 3162 2dbf 9b14 15c0 71d3 e4bf c18a 21c0
00000380: bd92 c33f 6309 d23d 22c3 08bf 2a05 2dbf
00000390: 8d18 4040 f245 8d3f 48eb 5cbf 31dc a7be
000003a0: 68df 8cbe b611 a13f 5e34 00c0 c526 cc3c
000003b0: 2e51 11bf 0203 bcbe a28c ae3f 7573 94bf
000003c0: 1c2f 3f3e ff79 f7bf ecc5 713c ec10 d5bf
000003d0: 5668 03c0 f7b3 09bf 4836 a73f 39e0 84be
000003e0: a099 513d a761 0140 8578 50be a2c6 373e
000003f0: 33f6 9fbf 4cf4 c0bf 9500 0c3e c116 a6bd

while/MatMul_11 f4 [256, 64]
-0.06304979 0.009911168 -0.032845967 -0.03922249 0.022199899 -0.0045631155 0.056499727 -0.04871066
-0.102415144 0.09075482 -0.05831832 -0.01313303 0.020996548 0.01820875 0.008140415 0.041479595
0.01895361 0.054758005 -0.06502857 0.040420294 -0.058791116 -0.06393785 0.029654667 0.04456635
0.02954724 0.02292326 -0.072586626 0.0028270595 0.058116995 -0.041348703 0.0040364712 -0.036154807
-0.0068111885 -0.17367832 -0.030165689 0.13763568 -0.025737667 -0.004427152 0.12201813 0.023143567
0.13262904 -0.0017072868 -0.045729335 -0.14720847 -0.11742115 0.0320588 -0.08549687 0.09583666
-0.07635978 -0.025309013 0.067340285 -0.013421551 -0.11607387 -0.00022781325 0.03307293 -0.04636378
-0.0054197246 -0.020810435 -0.041960035 -0.021946076 0.024973515 0.042530738 0.041387666 -0.106643654
-0.06405869 0.08641803 0.048738107 0.0530346 0.010046395 0.017008644 -0.13226627 0.03502442
0.1469999 0.0013393275 0.07563176 0.12496482 0.05407283 -0.07396442 -0.13133277 -0.063750334
0.020769013 -0.0071777455 0.027817871 0.02013685 0.029209256 0.0009395238 0.010620194 -0.10417047
0.003231353 0.0022990196 -0.03457395 0.023162708 0.0021116056 -0.010587681 0.042939898 0.050562464
-0.06809258 -0.074690185 -0.02625462 -0.049510643 0.14475816 0.03269309 -0.027164 -0.038794413
0.0034245546 0.0043222643 0.038047194 -0.012510111 -0.014085103 0.0644474 0.0740697 0.07324068
0.19781086 -0.031564567 0.033730518 0.03988912 0.04145558 0.052204136 -0.0091084745 0.0025946936
0.090144895 0.041502953 0.047894567 0.019788597 0.09218149 -0.015990086 0.034286197 -0.05917719
-0.060451362 0.0973424 0.066622734 -0.098221235 -0.004509151 0.013256098 -0.023014812 -0.0068949317
-0.115072 0.06426614 0.053850405 -0.10229418 0.04651045 0.024253685 -0.00664341 -0.05056599
0.0035935391 0.017446926 0.0038261933 0.14112571 0.030003672 0.009574108 -0.09713405 -0.11853728
0.016872952 0.0864846 -0.03464316 -0.07277837 -0.020903142 0.14884838 0.045722466 0.066702396
0.04253909 0.026425825 0.12646678 0.015024816 0.038677372 0.100434616 -0.0012487473 0.051948234
0.059673615 -0.03460405 -0.12651215 0.020746602 -0.0022331425 0.061186746 0.001472183 -0.022938613
-0.09703114 -0.07471054 -0.033953704 -0.05131121 0.088236265 -0.0010865149 -0.002043855 0.016122842
0.015737623 -0.06798117 0.064238295 -0.052155674 -0.041361228 0.021121807 0.012717073 -0.010781292
0.015086552 0.15521178 -0.09983565 0.015003979 0.018344996 -0.030873891 -0.037995204 -0.070422046
0.025725495 0.017985014 -0.09426891 -0.09836158 -0.038986936 0.16947633 -0.045018367 0.03478309
-0.14256068 -0.018868955 0.044208605 -0.0029062675 -0.10986806 0.025500523 -0.013484356 0.07789497
-0.10646263 0.03353434 0.07821811 -0.008389069 0.012201896 -0.15680595 0.01973395 0.053726792
0.009194037 -0.04666727 0.11560261 0.01855238 -0.05582479 -0.1444155 -0.04194604 -0.124472335
-0.08724354 -0.07665399 0.0070564365 0.007604836 -0.0047492543 0.009235743 -0.059620045 -0.07767853
0.061641052 0.003410114 0.013195433 -0.008258285 0.07660556 0.015643999 -0.041722037 -0.012579791
-0.049360346 -0.05730674 -0.092521206 -0.01728288 -0.046487197 0.025599105 -0.063179985 -0.033620168
00000000: 4020 81bd 7462 223c 7e89 06bd c3a7 20bd
00000010: 90dc b53c 3086 95bb 426c 673d d484 47bd
00000020: 08bf d1bd aadd b93d 31df 6ebd ec2b 57bc
00000030: f400 ac3c 842a 953c 605f 053c 82e6 293d
00000040: 9a44 9b3c ee49 603d b32d 85bd c08f 253d
00000050: f4ce 70bd d9f1 82bd 58ee f23c 348b 363d
00000060: 0e0d f23c 90c9 bb3c 4ca8 94bd 3046 393b
00000070: 160c 6e3d 425d 29bd 6044 843b 1017 14bd
00000080: 6430 dfbb bbd8 31be 091e f7bc 5ef0 0c3e
00000090: cdd7 d2bc a511 91bb a4e4 f93d 9497 bd3c
000000a0: e8cf 073e 0ac7 dfba af4e 3bbd d1bd 16be
000000b0: 807a f0bd 1750 033d fc18 afbd 0346 c43d
000000c0: 8462 9cbd d954 cfbc b4e9 893d 11e6 5bbc
000000d0: 23b8 edbd 27e1 6eb9 7b77 073d f2e7 3dbd
000000e0: f297 b1bb a57a aabc 49de 2bbd 42c8 b3bc
000000f0: 4295 cc3c b634 2e3d 1d86 293d fd67 dabd
00000100: 3431 83bd f0fb b03d 9ca1 473d cf3a 593d
00000110: a299 243c b655 8b3c cf70 07be c475 0f3d
00000120: 2487 163e 608c af3a d3e4 9a3d 8eed ff3d
00000130: 797b 5d3d a87a 97bd 197c 06be 898f 82bd
00000140: c723 aa3c 4b33 ebbb 4ee2 e33c 09f6 a43c
00000150: 4048 ef3c 604a 763a 5200 2e3c 5457 d5bd
00000160: 1bc5 533b 26ab 163b 6a9d 0dbd b8bf bd3c
00000170: dd62 0a3b f477 2dbc bfe1 2f3d 961a 4f3d
00000180: 1f74 8bbd 2bf7 98bd ee13 d7bc accb 4abd
00000190: 7c3b 143e 31e9 053d 0987 debc e4e6 1ebd
000001a0: 7e6e 603b c8a1 8d3b 60d7 1b3d 35f7 4cbc
000001b0: 34c5 66bc 00fd 833d dbb1 973d 36ff 953d
000001c0: ee8e 4a3e d949 01bd 0329 0a3d c662 233d
000001d0: 54cd 293d 01d4 553d b63b 15bc bc0b 2a3b
000001e0: e39d b83d 00ff 293d 182d 443d b21b a23c
000001f0: a6c9 bc3d a4fd 82bc af6f 0c3d c863 72bd
00000200: d99b 77bd 745b c73d 8071 883d 3728 c9bd
00000210: 80c1 93bb 1b30 593c 8f89 bcbc e1ee e1bb
00000220: deaa ebbd f79d 833d 3e92 5c3d 9c7f d1bd
00000230: be81 3e3d aaaf c63c f6b0 d9bb 491e 4fbd
00000240: 9581 6b3b dbec 8e3c dfc0 7a3b 4283 103e
00000250: 43ca f53c b8dc 1c3c 38ee c6bd acc3 f2bd
00000260: 2539 8a3c d71e b13d fce5 0dbd d30c 95bd
00000270: 113d abbc b66b 183e 7b47 3b3d 449b 883d
00000280: 783d 2e3d f97a d83c 8280 013e a52a 763c
00000290: 2a6c 1e3d aab0 cd3d 02ad a3ba acc7 543d
000002a0: 526c 743d fabc 0dbd 678c 01be c7f4 a93c
000002b0: ea59 12bb f49e 7a3d 44f6 c03a c2e9 bbbc
000002c0: 43b8 c6bd d701 99bd 0a13 0bbd b42b 52bd
000002d0: 37b5 b43d 6469 8eba 32f2 05bb 0d14 843c
000002e0: 30ec 803c b639 8bbd 5e8f 833d 30a1 55bd
000002f0: 646a 29bd a407 ad3c 455b 503c 04a4 30bc
00000300: 962d 773c d6ef 1e3e a276 ccbd 40d3 753c
00000310: 3f48 963c 3eeb fcbc dca0 1bbd 6f39 90bd
00000320: 46be d23c 4f55 933c 0f10 c1bd cc71 c9bd
00000330: c4b0 1fbd 348b 2d3e 2e65 38bd b778 0e3d
00000340: 6dfb 11be 1193 9abc 1514 353d 1477 3ebb
00000350: 8102 e1bd 79e6 d03c 7ded 5cbc 6687 9f3d
00000360: 1409 dabd 4e5b 093d d130 a03d 4e72 09bc
00000370: 76ea 473c bd91 20be 18a9 a13c a010 5c3d
00000380: 96a2 163c 2e26 3fbd 10c1 ec3d 29fb 973c
00000390: 89a8 64bd a8e1 13be 9ccf 2bbd 5aeb febd
000003a0: beac b2bd c4fc 9cbd ae39 e73b fd31 f93b
000003b0: a29f 9bbb 8451 173c 2634 74bd ec15 9fbd
000003c0: 547b 7c3d 387c 5f3b a831 583c c24d 07bc
000003d0: 60e3 9c3d d827 803c bae4 2abd 781b 4ebc
000003e0: 132e 4abd 79ba 6abd c27b bdbd d494 8dbc
000003f0: 5c69 3ebd 37b5 d13c 8264 81bd 4db5 09bd

while/MatMul f4 [256, 3]
-1.4447312 -0.9001942 0.485518 -0.48791835 -0.066925876 0.37758246 0.30050287 -0.36110783
-0.25205868 -1.058653 -0.54222286 1.0442709 -2.313726 -0.32975164 -0.20659396 -1.9674019
1.991838 0.63741237 -1.7886087 0.7702915 0.16752571 3.1081495 0.93030506 0.622172
-2.4142525 1.075601 -0.037125383 -0.9726711 0.09351546 0.5554681 -1.4065382 -0.6386541
1.6616669 0.5613257 -1.791222 0.6481165 -0.91666645 -1.4398718 1.4640445 -1.3959831
-0.29276437 -0.27432954 1.6628785 -0.16382086 0.5633687 0.005298571 0.23586404 0.39868677
0.06826539 -0.26658586 0.34592968 -1.5199711 -1.690369 0.7133967 0.96706235 0.61090237
0.4132385 -1.920604 -1.1700593 1.4648671 -1.1648155 -1.2375368 1.1642739 -2.96084
-1.1262295 1.132104 0.06510255 -0.22270364 -0.21127626 -2.8951936 -1.5064733 0.66162
-0.26078457 1.0138708 0.35386395 1.1531665 -0.3302545 0.1812937 0.09841118 0.36190745
-0.2849287 -1.4446884 -0.283749 0.131724 0.20218597 -1.6465296 1.1298391 0.29768646
-0.22201331 0.19192936 -0.72271645 -1.24928 0.763595 -0.93572253 -0.9795988 1.2187765
0.053697325 -1.0183443 1.1501999 1.7618921 -3.8141174 -0.02675528 -0.7716708 -0.5010535
-0.0691043 -1.3224051 -0.7901054 0.62200475 0.13974063 -1.8261935 0.8105117 0.668091
1.3603961 1.4922684 -1.2788002 -0.91742224 0.35159078 -0.4482196 1.6934389 0.18898368
1.0178629 -0.8576096 0.37472543 -1.2716372 -1.6024045 0.27665362 -1.6069391 -0.3879711
0.47329703 0.8248862 -0.64118016 0.7263743 -0.024012387 0.04687186 0.1348382 2.5944183
0.3720209 0.3649903 1.0218201 1.2118003 1.0664634 0.9405814 -0.8591394 0.36686274
-1.3396496 0.42633379 0.6915756 0.52622163 -1.7774334 0.20089146 0.9732436 -1.2131929
0.79337287 -0.7728139 -0.9820986 0.69736975 -0.16447344 0.15898214 0.23602647 -2.239754
1.443415 0.7725997 -1.6253828 -0.57507855 1.15547 1.1445545 -0.96167815 0.33687386
-0.7100698 0.68585545 0.32761866 -0.00558985 -0.8491426 0.76998085 0.3753359 -1.051334
0.36248097 1.5386759 0.055631056 1.3443688 0.1348594 0.7959044 0.3559367 0.0017207209
0.3282314 0.0504013 -2.423349 -2.004561 0.2098841 0.7905177 -0.67515504 0.22881633
0.062228486 -0.08479033 0.084265456 -0.037427686 -0.050385162 0.015472546 -0.07336171 -0.103494585
0.14461395 -0.04505489 -0.1380194 0.0041481107 0.05047737 0.059359536 0.08873315 0.028450191
-0.045505628 0.07548806 -0.12116964 0.05477433 -0.13267374 0.07745825 0.11932352 0.13321242
0.06206177 0.033924133 -0.061593615 0.014254928 -0.089843646 0.09501915 -0.05720365 0.10271889
-0.07514673 0.09989929 0.07626949 0.046686918 0.07960224 0.0376285 -0.10046594 -0.12456089
-0.0074504763 0.011091858 0.02064757 -0.10777845 0.13098034 -0.04719735 -0.11451732 0.13845822
-0.114142895 -0.12376092 -0.09009051 -0.06789148 0.018017367 -0.08198935 0.10465938 -0.037222296
0.09207566 0.118626386 0.0031998903 -0.14969745 -0.11845133 0.11366403 -0.054515667 0.09430663
00000000: f4ec b8bf 2173 66bf d195 f83e 6fd0 f9be
00000010: 6f10 89bd 7d52 c13e 83db 993e 20e3 b8be
00000020: d60d 81be f181 87bf 1ecf 0abf abaa 853f
00000030: 1614 14c0 35d5 a8be 5e8d 53be d3d3 fbbf
00000040: 8cf4 fe3f 752d 233f 21f1 e4bf d331 453f
00000050: dc8b 2b3e eceb 4640 7928 6e3f aa46 1f3f
00000060: 1d83 1ac0 4bad 893f c910 18bd f900 79bf
00000070: 0985 bf3d 2833 0e3f 7209 b4bf d67e 23bf
00000080: 80b1 d43f 0bb3 0f3f c346 e5bf f7ea 253f
00000090: a7aa 6abf b84d b8bf cf65 bb3f 93af b2bf
000000a0: 36e5 95be ec74 8cbe 34d9 d43f a8c0 27be
000000b0: ee38 103f a39f ad3b 5886 713e ac20 cc3e
000000c0: bace 8b3d f17d 88be b21d b13e 6a8e c2bf
000000d0: 035e d8bf 2ba1 363f 6691 773f 1964 1c3f
000000e0: ff93 d33e 5ad6 f5bf 81c4 95bf c480 bb3f
000000f0: ad18 95bf 9b67 9ebf ed06 953f 677e 3dc0
00000100: 4a28 90bf c9e8 903f 7c54 853d 6c0c 64be
00000110: ce58 58be da4a 39c0 1ed4 c0bf ee5f 293f
00000120: 8e85 85be 85c6 813f a82d b53e f69a 933f
00000130: 1e17 a9be 0ea5 393e cd8b c93d ef4b b93e
00000140: 2de2 91be 8deb b8bf 8d47 91be a8e2 063e
00000150: d709 4f3e 7bc1 d2bf 919e 903f 5c6a 983e
00000160: 7557 63be 2189 443e f203 39bf 68e8 9fbf
00000170: f67a 433f 838b 6fbf fdc6 7abf de00 9c3f
00000180: baf1 5b3d 1b59 82bf c039 933f ae85 e13f
00000190: 801a 74c0 e42d dbbc 388c 45bf 0b45 00bf
000001a0: 8e86 8dbd 9244 a9bf 5944 4abf b43b 1f3f
000001b0: 2b18 0f3e b5c0 e9bf b27d 4f3f 0308 2b3f
000001c0: 7621 ae3f a702 bf3f baaf a3bf 2fdc 6abf
000001d0: b503 b43e 0a7d e5be 9bc2 d83f f084 413e
000001e0: 5549 823f 4e8c 5bbf 03dc bf3e 02c5 a2bf
000001f0: 971b cdbf 8ba5 8d3e 2eb0 cdbf 26a4 c6be
00000200: fd53 f23e be2b 533f 6224 24bf abf3 393f
00000210: a0b5 c4bc b5fc 3f3d 0613 0a3e f30a 2640
00000220: 8679 be3e 02e0 ba3e 00cb 823f 461c 9b3f
00000230: df81 883f f1c9 703f 8ff0 5bbf 6fd5 bb3e
00000240: a379 abbf 6c48 da3e 190b 313f 76b6 063f
00000250: f082 e3bf 7eb6 4d3e 7e26 793f e849 9bbf
00000260: 7c1a 4b3f 22d7 45bf d06a 7bbf d386 323f
00000270: ba6b 28be 37cc 223e ecb0 713e 2158 0fc0
00000280: d3c1 b83f 18c9 453f 8b0c d0bf 5938 13bf
00000290: 71e6 933f c380 923f 8a30 76bf bb7a ac3e
000002a0: 22c7 35bf 3994 2f3f a2bd a73e 0f2b b7bb
000002b0: 6961 59bf 771d 453f 072c c03e 1d92 86bf
000002c0: 1b97 b93e 55f3 c43f 64dd 633d 4714 ac3f
000002d0: 9518 0a3e 64c0 4b3f 563d b63e d089 e13a
000002e0: f20d a83e 9871 4e3d 2618 1bc0 ba4a 00c0
000002f0: dceb 563e 5e5f 4a3f f6d6 2cbf d44e 6a3e
00000300: 4ce3 7e3d 8da6 adbd 5e93 ac3d c64d 19bd
00000310: ac60 4ebd 9080 7d3c aa3e 96bd f8f4 d3bd
00000320: ae15 143e 7a8b 38bd f554 0dbe e0ec 873b
00000330: 5cc1 4e3d fc22 733d bab9 b53d 6010 e93c
00000340: 1c64 3abd 7c99 9a3d ca27 f8bd 0c5b 603d
00000350: a0db 07be 6ea2 9e3d e45f f43d d668 083e
00000360: 7c34 7e3d 08f4 0a3d 9649 7cbd 808d 693c
00000370: f2ff b7bd 6699 c23d 604e 6abd 485e d23d
00000380: 87e6 99bd 0098 cc3d 2e33 9c3d c83a 3f3d
00000390: 8006 a33d 5820 1a3d 16c1 cdbd c819 ffbd
000003a0: 2023 f4bb a0ba 353c 1825 a93c f3ba dcbd
000003b0: b61f 063e 0252 41bd 0f88 eabd fec7 0d3e
000003c0: c0c3 e9bd 5d76 fdbd 6081 b8bd b00a 8bbd
000003d0: 2899 933c 08ea a7bd a857 d63d 6876 18bd
000003e0: 2a92 bc3d 64f2 f23d 40b5 513b 4a4a 19be
000003f0: 9c96 f2bd b0c8 e83d d24b 5fbd d623 c13d
