assets/rah_model.tflite (tflite, 31664 bytes, 5 tensors)

sequential_1/dense_1/BiasAdd/ReadVariableOp f4 [10]
00000000: 11f4 593e 0796 8fbc edd4 dbbd e944 ec3c
00000010: 79b4 fbbc abf7 95be bf14 8b3d 6ac3 8b3c
00000020: b0e5 413e 561d 43be
0.2128451 -0.017527593 -0.10733972 0.028841453 -0.030725705 -0.29290518 0.067910664 0.017060954
0.18935275 -0.1905416

sequential_1/dense_1/MatMul f4 [10, 64]
00000000: a9f0 05be b453 b53c c34d 54bf 3361 3dbe
00000010: 743a 013e ac76 f9be 1669 ff3e ccbb b7be
00000020: feed a1bb f5f2 b4be bd92 58bf 1c79 e0bf
00000030: 15c3 33bd 0f3d cb3d 16d2 02bf a899 7e3e
00000040: 3750 693d 648a 9dbe 3dc1 acc0 d702 f7bf
00000050: ed41 963e 026e d73d e828 81be b994 91bf
00000060: 592d 1fbe 913f 303e 92e0 223e 3d03 1bbf
00000070: b9d7 94bf e56a 823e 434b e2be cdef 84bf
00000080: 97d0 f3be b3de 073e c1a6 593e 771e 6a3e
00000090: 0473 2cc0 e096 d5be 397b 72be 4849 813e
000000a0: a13d 053f 8fe9 47bf 6e07 51be 9fc6 3ebf
000000b0: 86a6 98bf 588a 9dbc b486 5abf d064 9e3e
000000c0: 413b 2fbf 2f65 9ebe 9f1f c5be c3bf b0bd
000000d0: 67dd 863e 5aba 17be 6394 76bd b1b2 7abd
000000e0: 8a22 363e 2e54 05be 6c3e 99bd d38b 183e
000000f0: 4dd6 943e d032 683e c775 64bf 9607 fabe
00000100: c9ae 9dbe 71d5 a33e 40ce 9cbe 7017 e1bd
00000110: e2ee 9b3c f260 98bd 19c6 10be 4c11 53bd
00000120: 027e 36be 24d5 9c3e 79f2 8b3f a41c e0be
00000130: be6a 56bb 173c c2bd 2209 b6be 006d 723e
00000140: 0502 473d 4df8 5abf e2eb d4bf 7296 1d3e
00000150: d074 843e 7fb7 ce3d a660 1f3e a17e 4d3e
00000160: 7e5c 55bf 41fe 40bf c56d 7f3d 0c75 5fbd
00000170: 8095 173f 1b9c de3d 6277 d43e 1efc 48bf
00000180: fec0 7b3e 291b c73d ccec cc3d 473a bfbd
00000190: d6f2 c8be 3bc3 eebd 76bb 3abe 818d 9ebe
000001a0: 709d 3dbf 0fec f1be dc04 f43c c9f0 b6bd
000001b0: d55f 22be 38b1 56bf df53 c3bd 5ca7 6d3e
000001c0: 9d5e 20bf f738 c03e bb04 2ebf 1670 3abf
000001d0: 8723 a53d 184a 443e d039 e0be 26f5 89be
000001e0: 3ed1 1cbf 7c53 22bd a9d6 993e 174f 3e3e
000001f0: ab95 56bc a35a 6b3e 1719 5cbf dd66 52bf
00000200: c478 4ebf 51d2 653d 100a 423e a7b5 b2be
00000210: 6427 fd3d 2c8c b9bc e6cf 653e a6de 10bf
00000220: e32a 43be 9acd eebd 5f81 413f 85a2 b4bd
00000230: a2b1 19bd 1956 e03b aa22 f7be 4c90 863e
00000240: d1b0 00bf 11a4 823e d8be c7bf 0689 773f
00000250: 7b82 563e b884 b63d 8614 863e 9b74 91be
00000260: 8720 42be 7e03 85be 39f5 00be 4bce cbbd
00000270: b6a9 103f e89d af3c bc09 8f3e 8433 113f
00000280: 8708 023e 07f5 dc3d d1c1 173e d1dd 653e
00000290: 99bc 49bf cb17 a73e f64a de3d 629e 17be
000002a0: 9d11 aabf 06b8 7f3e 98d8 b0bd 4d58 16be
000002b0: a562 04be 3251 e4be f00e 9e3e 7a92 333e
000002c0: 32c2 b43e e1bf 483e 2131 24bf fea2 a1bf
000002d0: 801a 993d c21f a6be ebd9 ad3d f2af 24be
000002e0: 566a a9be 09d2 bcbe e49f 0ebe 8d32 433e
000002f0: 1638 0fbe 5902 43bf 5f53 a6bf 4dcb cdbe
00000300: e1e0 7d3d e80a a7bf c3e9 cebd 3b78 f6bf
00000310: 0d24 e9be f497 fbbf 061b a9bf b886 443e
00000320: 22f4 1dbf 0907 0fbf 899c 4bc0 1aa6 55be
00000330: 6ebb 84bf 7a70 f23e 1b80 8c3e 64ab a23e
00000340: 678c 47bf 6369 9cbe d1dc 97bf f756 26c0
00000350: f0ce 75bf ae00 6c3e 0ec5 49bf e2ff 1dbe
00000360: 0de2 57be f515 58be be88 eb3d 7250 8cbf
00000370: 6e12 12c0 cf4f bbbe 5e2f c3be eee0 73bd
00000380: 124a c7c0 b345 7c3e 8202 ecbc 6c0b 71be
00000390: d727 b3bf b35b 94bd 8679 233e 1af4 4f3e
000003a0: 9959 0bc0 9f2e 583d beb9 97bf 67ec 2d3e
000003b0: e0f3 ed3e 20fd bebe b015 57bf 2d6a 04be
000003c0: e28a fe3d 970c 7cbf c32c 383e 285a d2bd
000003d0: 0362 0bc0 2caf 5abf 04bc 43bf 8f53 443f
000003e0: 04b2 c2bf 82c0 0fc0 933e b9bc bab2 c6be
000003f0: 3557 8c3d 8f12 2fbd a572 0c3f 8712 78bd
-0.13080086 0.02213464 -0.82931155 -0.1849411 0.12619954 -0.48723352 0.49884862 -0.35885465
-0.004941701 -0.35341612 -0.84598905 -1.753696 -0.043887217 0.099237554 -0.51101816 0.24863303
0.056961264 -0.30769646 -5.3985887 -1.9297742 0.29347172 0.10519029 -0.25226521 -1.1373512
-0.15544643 0.17211749 0.1590598 -0.60551816 -1.1628333 0.2547218 -0.44198045 -1.0385681
-0.4762008 0.13268547 0.21255018 0.22863184 -2.69452 -0.4171667 -0.23679818 0.25251222
0.52047163 -0.7809076 -0.2041299 -0.7452182 -1.1925819 -0.019231007 -0.8536179 0.3093629
-0.6844979 -0.30936572 -0.38500687 -0.08630326 0.26340792 -0.14817181 -0.060200106 -0.06120557
0.17786613 -0.13020393 -0.07482609 0.14897089 0.2906975 0.22675633 -0.89242214 -0.48833913
-0.30797413 0.3199878 -0.30626106 -0.109907985 0.019034807 -0.07440366 -0.14138068 -0.051530167
-0.17821506 0.30631363 1.0933372 -0.4377185 -0.0032717432 -0.094841175 -0.35553843 0.23674393
0.04858591 -0.85535127 -1.6634486 0.15389422 0.2587037 0.10093593 0.15564212 0.20067836
-0.83344257 -0.7538796 0.062360544 -0.054554984 0.59212494 0.108696185 0.41497332 -0.785097
0.2458534 0.09721977 0.10006103 -0.093372874 -0.3924777 -0.11658331 -0.18235573 -0.30967334
-0.74068356 -0.4725041 0.029787473 -0.08932645 -0.1585687 -0.83864164 -0.095374815 0.23208374
-0.6264437 0.3754346 -0.6797597 -0.7282728 0.08063417 0.1916889 -0.43794107 -0.26944846
-0.6125678 -0.0396304 0.30046585 0.18584858 -0.013097207 0.22983794 -0.85975784 -0.82188207
-0.80653024 0.056108776 0.18949151 -0.34904215 0.12361029 -0.022649847 0.22442588 -0.56589735
-0.19059329 -0.11660309 0.7558803 -0.08820061 -0.03752292 0.006846201 -0.48268634 0.26281965
-0.502698 0.25515798 -1.5605116 0.96693456 0.20948212 0.08912033 0.26187533 -0.28409275
-0.1895772 -0.25979227 -0.12593545 -0.09951457 0.5650896 0.0214376 0.27937114 0.5671923
0.12698565 0.10788923 0.14820029 0.22447897 -0.788034 0.3263534 0.108541414 -0.14806512
-1.3286625 0.24972543 -0.08635062 -0.14682122 -0.12928255 -0.44593197 0.3087077 0.17536345
0.3530441 0.19604446 -0.64137465 -1.2627866 0.074757576 -0.32446104 0.0848883 -0.16082743
-0.3308894 -0.36878994 -0.13928181 0.19062252 -0.13986239 -0.7617546 -1.2994193 -0.4019417
0.06198204 -1.3050203 -0.1010318 -1.9255441 -0.45535317 -1.9655747 -1.3211372 0.19192016
-0.6170064 -0.5587011 -3.1814291 -0.20864144 -1.0369699 0.47351438 0.27441487 0.31771386
-0.7794861 -0.30549154 -1.1864263 -2.599058 -0.96018887 0.23047134 -0.78816307 -0.15429643
-0.21082325 -0.21102126 0.11500691 -1.096205 -2.2823749 -0.36584327 -0.38122076 -0.05954068
-6.227792 0.24635963 -0.02880979 -0.23539513 -1.3996533 -0.07244053 0.15964326 0.20307961
-2.1773436 0.052778836 -1.1853559 0.16984712 0.46475124 -0.37302494 -0.8401747 -0.12931128
0.124288335 -0.9845671 0.17985825 -0.10271102 -2.1778572 -0.8542354 -0.76458764 0.7669
-1.5210576 -2.2461247 -0.022612846 -0.38808233 0.06852571 -0.04274231 0.54862434 -0.060564544

sequential_1/lstm_1/while/lstm_cell/MatMul f4 [256, 1]
00000000: 1197 53be 4420 45bf a30f a53e c5d0 fbbe
00000010: fc99 d53d 84df d23e e5d7 66be fb49 113e
00000020: 73ea 183d 48e8 9c3e 2f43 d83e 77c4 b2be
00000030: d174 cd3d 73b9 38be 28f4 20bd d998 293f
00000040: 3b1d 93bd 1f17 f1be 9e4b b43e 1dda e53e
00000050: ab3b c7bd 0096 80be 6573 df3d 04dc 15be
00000060: 8688 5bbd b25f a3bd d535 063e 7850 963d
00000070: 7ba9 093f 75b1 cc3d 9274 a4be c6ad bb3e
00000080: a52f 2cbd f2e9 b4be 23b5 8abf 364b c1bc
00000090: 768d 86bd 7dfe 313f 5af2 04bf 1a9a d6be
000000a0: 399b f9be e7db 62be 7110 123e 7722 0abf
000000b0: 9e7c b3be a8d5 5d3d 11e0 ba3e dbb3 b03d
000000c0: 2be0 62be 031d 4a3e 5e20 853d 0acb 6c3e
000000d0: 9602 9ebd aec3 8a3e 5a8f abbe 4f4f b9be
000000e0: 27ff 17bf 8d6b d93e d0d8 023e ac3f 9cbe
000000f0: 07a5 403f e4d4 553c 684f dc3e 21ae 273e
00000100: 6503 bb3e e70f 573e 4f8d 353e dd97 b6be
00000110: 63c8 dd3e 8cf3 44bd 7b13 793e 8afb e2be
00000120: 0f40 483e 7f3c 82bd 835d a53d b8cf bcbd
00000130: 8048 dd3e b4d6 f7bd 4b61 883e f0e0 5e3e
00000140: 3f1d b43d 6b84 c93d d206 243f 5c65 48bf
00000150: d7c0 883e e92a 173f cdca a83d ea63 b9bc
00000160: d5cd 91be ac52 573e 8ba0 19bd 7463 193e
00000170: 505b 2cbf f500 e03e f725 003e 0254 df3d
00000180: 712f 0cbf ddfa 6e3e 3f50 663f fd1b 8e3e
00000190: 98a5 33bf c5b7 8dbd c642 06bf c17d aabe
000001a0: dfeb a23e 3541 2ebf 0c71 a3bd f9e2 83be
000001b0: 9bee 823c fb5b a73e 3224 ba3d 181c 8a3e
000001c0: bd4f 14bf 34a3 e63d 041c b2bd 425f 03bf
000001d0: b776 f7be b76c d63e 59e5 a7be bc92 6fbd
000001e0: e9b8 ddbd 8240 523d c583 a33e ceee f839
000001f0: 920e c73e 64c7 c73e 0b57 7a3e 86cf 863e
00000200: 7e93 bf3e df22 39bf cd7d b5be 143b 32bf
00000210: 80b2 223e 4294 a0be 09af 5a3e 149c 513e
00000220: a15b 8cbe 383e b0be a032 f13e 065a 06bf
00000230: cae4 df3d 8f86 dc3e 0404 a43e 7f57 c33e
00000240: c6dd 1dbf 0ca5 10bf 8f5e ab3e a37b 4ebf
00000250: b138 a63d cea5 2e3f 87d4 733e 8686 c1be
00000260: 7117 0c3e e0a4 5bbe aab9 a3bb b949 cebe
00000270: ed52 11bf 3b69 f43d d5b8 a23e 4051 ffbe
00000280: 641f 26bf 5ee0 503e f3da 493e 6ef5 373e
00000290: 2fa3 be3e c180 e83e f3f1 333e 36fe be3e
000002a0: b3cd 913e d25c 143e c2f3 d9be e010 eabe
000002b0: e6de b1be 2f47 8fbe f46a 273f cfd6 533e
000002c0: 8160 5c3e 4865 4c3e 21d8 28bf 4a69 03bf
000002d0: 30f4 473e 9aa7 f1be b17c e2be a9f7 d83e
000002e0: 9ba1 21bf f164 9dbf 6b95 b1be b86d b23e
000002f0: 865e 603e 531e f23e 032b 5ebf 7baf fabe
00000300: 0612 e0be 6cf9 4c3e b3c4 2c3f fbc7 2fbf
00000310: 9711 2f3d 4449 f83e 3d1b ff3c d752 7a3f
00000320: c539 88be a409 2c3f 9208 023f 4e29 e0be
00000330: 312c 12be cf7c debd 3143 20bf 6d14 403f
00000340: dc1b acbe 9372 05be 94d9 a4be 3737 25bf
00000350: 2069 663d dc72 f1be ed6a eb3d 787f 8c3d
00000360: ef92 6ebd 66b5 f73d 8083 03be fc78 5d3e
00000370: 4ea9 ff3e 9d79 a73d 1de2 933e 2d45 2b3e
00000380: 97ea 14be 0a1e babd 3efa 5abf d630 56be
00000390: 3f32 0dbe 5da6 033f 8928 973d ea92 54be
000003a0: fac7 b6be 1bbf f93c 46a9 453d 4205 06bf
000003b0: 1fb8 ff3d a0fe 183e bc6c c73e 205b 0d3e
000003c0: b884 063e 2c13 843e 9eca 383f 7e57 7b3e
000003d0: ec21 d2bd b0e3 973e 5822 143e ae51 723f
000003e0: 6a9a 39bf ca38 cebe ddc9 fc3e 394a 0fbe
000003f0: 3536 e33e d470 2dbf 3cd9 9f3f a8ef 593f
-0.20663096 -0.7700236 0.32238492 -0.49182716 0.10429761 0.41186154 -0.22543295 0.14188378
0.037332963 0.30645967 0.42238757 -0.34915516 0.100320466 -0.18039493 -0.039295346 0.6624885
-0.0718331 -0.47087952 0.3521394 0.4489297 -0.09728178 -0.2511444 0.10910682 -0.1463471
-0.053596996 -0.07977237 0.13106473 0.07339567 0.5377423 0.09994785 -0.32120186 0.36656016
-0.042037625 -0.35334736 -1.0836529 -0.023595434 -0.0656995 0.69528943 -0.519323 -0.41914445
-0.48751238 -0.22154199 0.14264084 -0.5395884 -0.35056013 0.054158837 0.36499074 0.08628055
-0.22155826 0.1973763 0.06500314 0.23124328 -0.07715337 0.27102417 -0.33507806 -0.3619332
-0.59373707 0.42464867 0.1277802 -0.30517328 0.7525181 0.013051245 0.43029332 0.16375019
0.36526027 0.2100216 0.17729686 -0.35662737 0.43316945 -0.048083827 0.24323837 -0.44332534
0.19555686 -0.06359195 0.080744766 -0.09219307 0.43219376 -0.12101498 0.2663673 0.21765494
0.08794641 0.0983971 0.64072907 -0.7827966 0.26709625 0.5904985 0.08241806 -0.02263065
-0.2847735 0.2102763 -0.03750662 0.14979345 -0.6732683 0.4375073 0.12514482 0.10904695
-0.5475989 0.23337884 0.89966196 0.27755728 -0.7017455 -0.06919817 -0.5244564 -0.33299068
0.3182058 -0.6806825 -0.07980546 -0.25759104 0.015982917 0.32687363 0.09088935 0.2697456
-0.5793417 0.11261597 -0.0869675 -0.51317227 -0.4833276 0.41879818 -0.32792166 -0.058489546
-0.108262844 0.05133105 0.3193647 0.0004748017 0.38878304 0.3901931 0.24447267 0.26330203
0.37417215 -0.72318834 -0.3544754 -0.69621396 0.15888405 -0.31363112 0.21355833 0.20469695
-0.27413657 -0.3442247 0.47108936 -0.52481115 0.1093231 0.4307141 0.32034314 0.38152692
-0.61666524 -0.5650184 0.3347058 -0.80657405 0.08116282 0.6822175 0.23811541 -0.37797946
0.13680817 -0.21449614 -0.004996498 -0.4029062 -0.5676716 0.119341336 0.3178164 -0.49866676
-0.6489165 0.2039809 0.19712429 0.17964718 0.37233874 0.4541073 0.17572765 0.37303323
0.2847725 0.14488533 -0.42568785 -0.45716 -0.3474037 -0.27983996 0.6539757 0.20687412
0.21521188 0.1996051 -0.65954787 -0.51332533 0.19526744 -0.47198182 -0.44235757 0.4237645
-0.63137215 -1.229643 -0.3468431 0.34849334 0.21911058 0.4728876 -0.8678438 -0.48962006
-0.4376375 0.20017022 0.6748764 -0.6866452 0.042741384 0.48493397 0.031140918 0.97782654
-0.26606575 0.6720221 0.5079433 -0.43781513 -0.1427467 -0.10863649 -0.62602526 0.7503117
-0.33615005 -0.13031988 -0.3219725 -0.64537376 0.0562526 -0.47157943 0.11495004 0.0686025
-0.058245596 0.12095146 -0.12843132 0.21628183 0.49933857 0.08177493 0.28883448 0.16725607
-0.14542614 -0.09087761 -0.8553809 -0.20917067 -0.13788699 0.51425725 0.07380778 -0.20759168
-0.35699445 0.030486634 0.048257135 -0.5235177 0.1248629 0.14940882 0.38950145 0.13804293
0.13136566 0.25795877 0.7218417 0.24545094 -0.10260376 0.296659 0.14466226 0.94655883
-0.7250124 -0.40277702 0.4937276 -0.13993157 0.44377294 -0.6775029 1.248817 0.8513131

sequential_1/lstm_1/while/lstm_cell/BiasAdd/ReadVariableOp f4 [256]
00000000: e1fe e83d bbec 683e 186e 54be bc3f 94be
00000010: d132 233e c23a 05bf acb1 8dbe d3a3 f13e
00000020: ef61 06bf 32b1 47ba eb4e b63e bc8b 11bf
00000030: d2e0 95be 4999 cf3e d5ea 2e3e a7c7 253e
00000040: c31f 00bf 4969 06bf 3714 803e 6f0d be3e
00000050: 2000 febd 73f3 cb3e d4d3 36bc 91a4 e83d
00000060: 5f79 68bd abc0 cabe b547 efbd 21c5 6cbe
00000070: 61a1 123f 3c46 29bc f15a d03e 91d9 92be
00000080: 1ff1 a9be f243 da3d 77b2 4e3e b4db f9bc
00000090: 81a4 79bd 72e9 ef3c 7667 9e3d 243b 0f3e
000000a0: 74ef 543e e5eb 7a3a af8a 86bc 1154 13bf
000000b0: 52d3 06be beca 44be 19c3 e6be 1298 013e
000000c0: 7098 ac3d fa54 a8be 970b 2a3f 1bb4 ad3e
000000d0: 4b67 f2bc 18b0 893e 6589 f33e 8137 e13e
000000e0: d6b5 fbbe 0a61 203e 7a29 0a3e 17d0 883d
000000f0: 875b 483e 50f8 a13e 1d98 503f 9e69 cf3d
00000100: 87ff 4e3f 6332 b03f 5ce0 5d3f a3f3 673f
00000110: 301e 913f 70df 153f 386d 6e3f ecbb a13f
00000120: 152c c03e 1cb1 603f b181 5d3f bb2a ff3e
00000130: 38b5 3e3f 00ae a03f 26f2 583f 56db 963f
00000140: 3feb 323f 990a 333f 87ba 533f d116 ae3f
00000150: ce17 853f f23a 8e3f 0743 b23f adf5 ae3f
00000160: 0a73 793f 78c9 1b3f 15d5 643f 2dcf 373f
00000170: 937d ad3f 4133 803f 6678 9a3f 3668 293f
00000180: f9dc 413f f3a6 753f a696 523f 0ed1 373f
00000190: ef26 a03f 534a 663e c39d c43f 08d6 a93f
000001a0: d36c 303f e3bf 033f 085e 713f 1552 203f
000001b0: 65e8 7b3f 77ec 803f 656c db3e 2e3c 843f
000001c0: 2684 843f 4e44 7b3f c529 9d3f bca3 be3f
000001d0: d05c af3f 605c 843f d8cd 073f 9f10 cf3f
000001e0: 240e f43e 22c6 143f 6ffe 613f 6666 543f
000001f0: 4577 803f 091b 913f 5fbd a93f e3e3 6d3f
00000200: 1d5b 883d c085 963e 196f b73e d351 d1be
00000210: 2ab5 e4bc 555b 35be ba57 d9bd 22df 0c3f
00000220: fa46 8d3e 33d2 ac3e 233d 583e bb49 8fbd
00000230: 8625 68bd 9cf4 1d3f db14 043e 28a1 013e
00000240: 5487 b7bc 2132 1fbe c1c4 39bd 9f4c 503f
00000250: 663f e03d 7290 7e3e bf05 70be 9309 d33e
00000260: e64d 97bc 1551 5c3e b98c 6dbd 567e d03e
00000270: e163 143f fb07 b33c e176 013f 35f7 003f
00000280: e130 733e ee47 8a3e 7de0 273d d346 073e
00000290: 8652 593e 6b56 26be 4a71 b63d 3b8d 4e3e
000002a0: 9c6b 513d e70c f2bd b9c7 7bbe 951b 8fbe
000002b0: a6d4 b93d 76b9 853e db17 ebbd c2ff df3b
000002c0: a84b 00be 220c 14be 53e3 263f eb53 063f
000002d0: b5ab 44be 5203 e73e b643 473e d333 323f
000002e0: 3f6a 9abe bd52 f93e 6238 ab3e 92d2 10bd
000002f0: b225 f63d e367 5f3e d7ae 5b3f eb8b f63e
00000300: 3ac9 a63e 7a0e 78bd f6e2 40bb 5c1c e6be
00000310: e4ab 033e 754e 9abe a4ee 86bb 5f55 e03e
00000320: 3cf7 51be 8d99 7f3e b1e6 8a3e 668b d2be
00000330: 1286 63be 2866 e93e 312a d13e 50f4 0b3e
00000340: c6d0 c2be 8241 a9be 216b 483c ba07 563f
00000350: 13f9 cf3b dd1e f53e 24bc 55be 9b5f e33e
00000360: 86bf 0e3d 0d7d 83bd cb0c eebd 67a1 9cbe
00000370: dc08 113f 7673 11bd 5b0d f83e 8648 c33c
00000380: 7cd9 9fbe bcfe a73d 32fa 133e d8f9 143e
00000390: efca e9bd 835a 673e 956c 943e 35cb 873e
000003a0: 3167 ad3e 55b9 783d 608a ac3e 7302 d6be
000003b0: 51cc 153e 0a60 633d 5944 efbe 9243 ff3d
000003c0: 7084 263e f8d5 babe 40be 3c3f 22c9 cf3e
000003d0: 356f 01be da0b 093f 7c4a 6b3e 97dc fb3e
000003e0: 6214 cfbe e774 f33e 7455 723e e209 753e
000003f0: 6645 2c3e e901 013f 2dd0 503f fda2 c63e
0.11376739 0.22746556 -0.20745122 -0.28954875 0.15937354 -0.5204278 -0.27674615 0.471953
-0.52493185 -0.0007617652 0.35607085 -0.5685384 -0.29273087 0.40546635 0.17081769 0.16189443
-0.50048465 -0.525044 0.25015423 0.37119624 -0.124023676 0.39834175 -0.011158902 0.113595136
-0.056756373 -0.3960012 -0.11683599 -0.23122074 0.57277495 -0.010331687 0.40694383 -0.28681615
-0.33191773 0.10657491 0.20185266 -0.03050027 -0.0609479 0.02928612 0.07734577 0.13987404
0.20794469 0.0009571894 -0.016423551 -0.5755015 -0.1316655 -0.19217965 -0.45070723 0.12655666
0.08427513 -0.32877332 0.66423935 0.33926472 -0.02959027 0.2689216 0.4756576 0.4398766
-0.49162167 0.15662017 0.13492385 0.06680315 0.19566165 0.3163476 0.81482106 0.10127567
0.80858654 1.3765377 0.8667047 0.90606135 1.1337337 0.58544064 0.93135405 1.2635474
0.37533632 0.8777025 0.8652602 0.49837288 0.7449527 1.25531 0.8474449 1.1785686
0.6989021 0.69938046 0.82706493 1.3600713 1.039789 1.1111739 1.3926705 1.3668724
0.9744116 0.6085429 0.8938764 0.718005 1.3553947 1.0015641 1.2067993 0.6617464
0.757278 0.9595787 0.8226112 0.7180337 1.2511882 0.2248929 1.5360645 1.3268442
0.6891605 0.5146467 0.94284105 0.6262525 0.9840148 1.0072163 0.42856136 1.0330865
1.0352829 0.981511 1.2278372 1.4893718 1.3700199 1.0340691 0.5304847 1.6176947
0.47667038 0.58114827 0.8827886 0.8296875 1.0036398 1.1336375 1.3260916 0.9292585
0.066580035 0.29398918 0.35826948 -0.4088274 -0.027918417 -0.17710622 -0.10612436 0.55027974
0.27593213 0.3375412 0.21117072 -0.06996485 -0.05667641 0.6170137 0.1289858 0.12659132
-0.022403397 -0.15546466 -0.045353655 0.81366915 0.10949592 0.24859789 -0.23439692 0.41218242
-0.018469762 0.21515305 -0.05799553 0.40721387 0.57964903 0.021854391 0.5057202 0.5037721
0.23749115 0.27008003 0.040985573 0.13210611 0.21222886 -0.16243903 0.08908327 0.20171063
0.051128015 -0.11818867 -0.24587907 -0.2795073 0.090737626 0.26118058 -0.114791594 0.0068359086
-0.1252886 -0.14457753 0.6519062 0.524718 -0.19206126 0.4511972 0.19459423 0.6961033
-0.30159184 0.48695937 0.33441454 -0.035357065 0.120189086 0.21816973 0.8581366 0.48153624
0.325754 -0.06056068 -0.0029432154 -0.4494351 0.1285854 -0.30137983 -0.0041178036 0.43815133
-0.20504469 0.24960919 0.2712913 -0.41121978 -0.22219113 0.45585752 0.40852502 0.13667417
-0.38049906 -0.3305779 0.012232573 0.8360554 0.0063468306 0.4787511 -0.20872551 0.4440888
0.03485062 -0.06420336 -0.11623534 -0.3059189 0.56654143 -0.035510503 0.4844769 0.023838293
-0.31220615 0.082028836 0.1445091 0.14548433 -0.1141566 0.22593121 0.28989092 0.26522222
0.3386779 0.06072362 0.33699322 -0.41798744 0.14628722 0.05551151 -0.46731833 0.1246406
0.16261458 -0.3649137 0.737278 0.4058314 -0.12640078 0.5353371 0.22977632 0.49191734
-0.40445238 0.47550127 0.2366541 0.23929551 0.16823348 0.5039354 0.8156765 0.38796225

sequential_1/lstm_1/while/lstm_cell/MatMul_11 i1 [256, 64] scale=0.029232804 zero_point=0
00000000: f611 021f fe22 03f4 050b 1116 f3f9 f7fa
00000010: 1a16 0404 fcf7 040a 080a 0303 00f7 fb03
00000020: 0df5 01f7 fc12 f1fa 0010 1d1d 0f06 06f6
00000030: 0afd 0005 0507 12fd 1b0c 0b00 f9f4 0303
00000040: 20f0 f6f8 e7f8 0f14 f6f9 33f3 3010 2527
00000050: f4f3 15f6 102a f2f8 f4f6 01f4 f825 16f9
00000060: f112 1213 34d4 2737 161a f9fb faf9 ed13
00000070: f417 fafd eef2 f616 f2f4 f5d5 102f fefa
00000080: 0604 0b0c 0b12 0404 050d 0dff 0406 050b
00000090: fcfb 0904 040d 3100 0706 000a 080c 0909
000000a0: 0406 0203 040d 0303 0907 130b 0703 0b0b
000000b0: 0b0a 0b06 1c08 0304 0108 0a0d 0d05 130e
000000c0: 0bf7 0bff 0301 000b fefc 0f05 060b 0e06
000000d0: 1202 0711 0906 000c 0805 0400 0d00 0a1a
000000e0: 0809 0607 0aff 0f09 0d00 fdfd 050a 0007
000000f0: 17fd 0c0a f8fb 0903 0dfd fe02 0614 1208
-0.29232803 0.49695766 0.058465607 0.9062169 -0.058465607 0.9939153 0.087698415 -0.35079366
0.14616401 0.32156083 0.49695766 0.64312166 -0.38002646 -0.20462963 -0.26309523 -0.17539683
0.7600529 0.64312166 0.116931215 0.116931215 -0.116931215 -0.26309523 0.116931215 0.29232803
0.23386243 0.29232803 0.087698415 0.087698415 0.0 -0.26309523 -0.14616401 0.087698415
0.38002646 -0.32156083 0.029232804 -0.26309523 -0.116931215 0.52619046 -0.43849206 -0.17539683
0.0 0.46772486 0.8477513 0.8477513 0.43849206 0.17539683 0.17539683 -0.29232803
0.29232803 -0.087698415 0.0 0.14616401 0.14616401 0.20462963 0.52619046 -0.087698415
0.7892857 0.35079366 0.32156083 0.0 -0.20462963 -0.35079366 0.087698415 0.087698415
0.9354497 -0.46772486 -0.29232803 -0.23386243 -0.7308201 -0.23386243 0.43849206 0.58465606
-0.29232803 -0.20462963 1.490873 -0.38002646 1.4031746 0.46772486 1.0816138 1.1400794
-0.35079366 -0.38002646 0.61388886 -0.29232803 0.46772486 1.2277777 -0.40925926 -0.23386243
-0.35079366 -0.29232803 0.029232804 -0.35079366 -0.23386243 1.0816138 0.64312166 -0.20462963
-0.43849206 0.52619046 0.52619046 0.55542326 1.5201058 -1.2862433 1.1400794 1.6078042
0.64312166 0.7600529 -0.20462963 -0.14616401 -0.17539683 -0.20462963 -0.55542326 0.55542326
-0.35079366 0.67235446 -0.17539683 -0.087698415 -0.52619046 -0.40925926 -0.29232803 0.64312166
-0.40925926 -0.35079366 -0.32156083 -1.2570106 0.46772486 1.3739418 -0.058465607 -0.17539683
0.17539683 0.116931215 0.32156083 0.35079366 0.32156083 0.52619046 0.116931215 0.116931215
0.14616401 0.38002646 0.38002646 -0.029232804 0.116931215 0.17539683 0.14616401 0.32156083
-0.116931215 -0.14616401 0.26309523 0.116931215 0.116931215 0.38002646 1.4324074 0.0
0.20462963 0.17539683 0.0 0.29232803 0.23386243 0.35079366 0.26309523 0.26309523
0.116931215 0.17539683 0.058465607 0.087698415 0.116931215 0.38002646 0.087698415 0.087698415
0.26309523 0.20462963 0.55542326 0.32156083 0.20462963 0.087698415 0.32156083 0.32156083
0.32156083 0.29232803 0.32156083 0.17539683 0.8185185 0.23386243 0.087698415 0.116931215
0.029232804 0.23386243 0.29232803 0.38002646 0.38002646 0.14616401 0.55542326 0.40925926
0.32156083 -0.26309523 0.32156083 -0.029232804 0.087698415 0.029232804 0.0 0.32156083
-0.058465607 -0.116931215 0.43849206 0.14616401 0.17539683 0.32156083 0.40925926 0.17539683
0.52619046 0.058465607 0.20462963 0.49695766 0.26309523 0.17539683 0.0 0.35079366
0.23386243 0.14616401 0.116931215 0.0 0.38002646 0.0 0.29232803 0.7600529
0.23386243 0.26309523 0.17539683 0.20462963 0.29232803 -0.029232804 0.43849206 0.26309523
0.38002646 0.0 -0.087698415 -0.087698415 0.14616401 0.29232803 0.0 0.20462963
0.67235446 -0.087698415 0.35079366 0.29232803 -0.23386243 -0.14616401 0.26309523 0.087698415
0.38002646 -0.087698415 -0.058465607 0.058465607 0.17539683 0.58465606 0.52619046 0.23386243
